{"format": "layers-model", "generatedBy": "keras v2.1.5", "convertedBy": "TensorFlow.js Converter v3.18.0", "modelTopology": {"keras_version": "2.1.5", "backend": "tensorflow", "model_config": {"class_name": "Model", "config": {"name": "model_2", "layers": [{"name": "input_1", "class_name": "InputLayer", "config": {"batch_input_shape": [null, null, null, 3], "dtype": "float32", "sparse": false, "name": "input_1"}, "inbound_nodes": []}, {"name": "zero_padding2d_1", "class_name": "ZeroPadding2D", "config": {"name": "zero_padding2d_1", "trainable": false, "padding": [[1, 1], [1, 1]], "data_format": "channels_last"}, "inbound_nodes": [[["input_1", 0, 0, {}]]]}, {"name": "backbone.stem.conv", "class_name": "Conv2D", "config": {"name": "backbone.stem.conv", "trainable": false, "filters": 32, "kernel_size": [3, 3], "strides": [2, 2], "padding": "valid", "data_format": "channels_last", "dilation_rate": [1, 1], "activation": "linear", "use_bias": false, "kernel_initializer": {"class_name": "RandomNormal", "config": {"mean": 0.0, "stddev": 0.02, "seed": null}}, "bias_initializer": {"class_name": "Zeros", "config": {}}, "kernel_regularizer": null, "bias_regularizer": null, "activity_regularizer": null, "kernel_constraint": null, "bias_constraint": null}, "inbound_nodes": [[["zero_padding2d_1", 0, 0, {}]]]}, {"name": "backbone.stem.bn", "class_name": "BatchNormalization", "config": {"name": "backbone.stem.bn", "trainable": false, "axis": -1, "momentum": 0.97, "epsilon": 0.001, "center": true, "scale": true, "beta_initializer": {"class_name": "Zeros", "config": {}}, "gamma_initializer": {"class_name": "Ones", "config": {}}, "moving_mean_initializer": {"class_name": "Zeros", "config": {}}, "moving_variance_initializer": {"class_name": "Ones", "config": {}}, "beta_regularizer": null, "gamma_regularizer": null, "beta_constraint": null, "gamma_constraint": null}, "inbound_nodes": [[["backbone.stem.conv", 0, 0, {}]]]}, {"name": "leaky_re_lu_1", "class_name": "LeakyReLU", "config": {"name": "leaky_re_lu_1", "trainable": false, "alpha": 0.10000000149011612}, "inbound_nodes": [[["backbone.stem.bn", 0, 0, {}]]]}, {"name": "zero_padding2d_2", "class_name": "ZeroPadding2D", "config": {"name": "zero_padding2d_2", "trainable": false, "padding": [[1, 1], [1, 1]], "data_format": "channels_last"}, "inbound_nodes": [[["leaky_re_lu_1", 0, 0, {}]]]}, {"name": "backbone.dark2.0.conv", "class_name": "Conv2D", "config": {"name": "backbone.dark2.0.conv", "trainable": false, "filters": 64, "kernel_size": [3, 3], "strides": [2, 2], "padding": "valid", "data_format": "channels_last", "dilation_rate": [1, 1], "activation": "linear", "use_bias": false, "kernel_initializer": {"class_name": "RandomNormal", "config": {"mean": 0.0, "stddev": 0.02, "seed": null}}, "bias_initializer": {"class_name": "Zeros", "config": {}}, "kernel_regularizer": null, "bias_regularizer": null, "activity_regularizer": null, "kernel_constraint": null, "bias_constraint": null}, "inbound_nodes": [[["zero_padding2d_2", 0, 0, {}]]]}, {"name": "backbone.dark2.0.bn", "class_name": "BatchNormalization", "config": {"name": "backbone.dark2.0.bn", "trainable": false, "axis": -1, "momentum": 0.97, "epsilon": 0.001, "center": true, "scale": true, "beta_initializer": {"class_name": "Zeros", "config": {}}, "gamma_initializer": {"class_name": "Ones", "config": {}}, "moving_mean_initializer": {"class_name": "Zeros", "config": {}}, "moving_variance_initializer": {"class_name": "Ones", "config": {}}, "beta_regularizer": null, "gamma_regularizer": null, "beta_constraint": null, "gamma_constraint": null}, "inbound_nodes": [[["backbone.dark2.0.conv", 0, 0, {}]]]}, {"name": "leaky_re_lu_2", "class_name": "LeakyReLU", "config": {"name": "leaky_re_lu_2", "trainable": false, "alpha": 0.10000000149011612}, "inbound_nodes": [[["backbone.dark2.0.bn", 0, 0, {}]]]}, {"name": "backbone.dark2.1.cv2.conv", "class_name": "Conv2D", "config": {"name": "backbone.dark2.1.cv2.conv", "trainable": false, "filters": 32, "kernel_size": [1, 1], "strides": [1, 1], "padding": "same", "data_format": "channels_last", "dilation_rate": [1, 1], "activation": "linear", "use_bias": false, "kernel_initializer": {"class_name": "RandomNormal", "config": {"mean": 0.0, "stddev": 0.02, "seed": null}}, "bias_initializer": {"class_name": "Zeros", "config": {}}, "kernel_regularizer": null, "bias_regularizer": null, "activity_regularizer": null, "kernel_constraint": null, "bias_constraint": null}, "inbound_nodes": [[["leaky_re_lu_2", 0, 0, {}]]]}, {"name": "backbone.dark2.1.cv2.bn", "class_name": "BatchNormalization", "config": {"name": "backbone.dark2.1.cv2.bn", "trainable": false, "axis": -1, "momentum": 0.97, "epsilon": 0.001, "center": true, "scale": true, "beta_initializer": {"class_name": "Zeros", "config": {}}, "gamma_initializer": {"class_name": "Ones", "config": {}}, "moving_mean_initializer": {"class_name": "Zeros", "config": {}}, "moving_variance_initializer": {"class_name": "Ones", "config": {}}, "beta_regularizer": null, "gamma_regularizer": null, "beta_constraint": null, "gamma_constraint": null}, "inbound_nodes": [[["backbone.dark2.1.cv2.conv", 0, 0, {}]]]}, {"name": "leaky_re_lu_4", "class_name": "LeakyReLU", "config": {"name": "leaky_re_lu_4", "trainable": false, "alpha": 0.10000000149011612}, "inbound_nodes": [[["backbone.dark2.1.cv2.bn", 0, 0, {}]]]}, {"name": "backbone.dark2.1.cv3.0.conv", "class_name": "Conv2D", "config": {"name": "backbone.dark2.1.cv3.0.conv", "trainable": false, "filters": 32, "kernel_size": [3, 3], "strides": [1, 1], "padding": "same", "data_format": "channels_last", "dilation_rate": [1, 1], "activation": "linear", "use_bias": false, "kernel_initializer": {"class_name": "RandomNormal", "config": {"mean": 0.0, "stddev": 0.02, "seed": null}}, "bias_initializer": {"class_name": "Zeros", "config": {}}, "kernel_regularizer": null, "bias_regularizer": null, "activity_regularizer": null, "kernel_constraint": null, "bias_constraint": null}, "inbound_nodes": [[["leaky_re_lu_4", 0, 0, {}]]]}, {"name": "backbone.dark2.1.cv3.0.bn", "class_name": "BatchNormalization", "config": {"name": "backbone.dark2.1.cv3.0.bn", "trainable": false, "axis": -1, "momentum": 0.97, "epsilon": 0.001, "center": true, "scale": true, "beta_initializer": {"class_name": "Zeros", "config": {}}, "gamma_initializer": {"class_name": "Ones", "config": {}}, "moving_mean_initializer": {"class_name": "Zeros", "config": {}}, "moving_variance_initializer": {"class_name": "Ones", "config": {}}, "beta_regularizer": null, "gamma_regularizer": null, "beta_constraint": null, "gamma_constraint": null}, "inbound_nodes": [[["backbone.dark2.1.cv3.0.conv", 0, 0, {}]]]}, {"name": "leaky_re_lu_5", "class_name": "LeakyReLU", "config": {"name": "leaky_re_lu_5", "trainable": false, "alpha": 0.10000000149011612}, "inbound_nodes": [[["backbone.dark2.1.cv3.0.bn", 0, 0, {}]]]}, {"name": "backbone.dark2.1.cv3.1.conv", "class_name": "Conv2D", "config": {"name": "backbone.dark2.1.cv3.1.conv", "trainable": false, "filters": 32, "kernel_size": [3, 3], "strides": [1, 1], "padding": "same", "data_format": "channels_last", "dilation_rate": [1, 1], "activation": "linear", "use_bias": false, "kernel_initializer": {"class_name": "RandomNormal", "config": {"mean": 0.0, "stddev": 0.02, "seed": null}}, "bias_initializer": {"class_name": "Zeros", "config": {}}, "kernel_regularizer": null, "bias_regularizer": null, "activity_regularizer": null, "kernel_constraint": null, "bias_constraint": null}, "inbound_nodes": [[["leaky_re_lu_5", 0, 0, {}]]]}, {"name": "backbone.dark2.1.cv1.conv", "class_name": "Conv2D", "config": {"name": "backbone.dark2.1.cv1.conv", "trainable": false, "filters": 32, "kernel_size": [1, 1], "strides": [1, 1], "padding": "same", "data_format": "channels_last", "dilation_rate": [1, 1], "activation": "linear", "use_bias": false, "kernel_initializer": {"class_name": "RandomNormal", "config": {"mean": 0.0, "stddev": 0.02, "seed": null}}, "bias_initializer": {"class_name": "Zeros", "config": {}}, "kernel_regularizer": null, "bias_regularizer": null, "activity_regularizer": null, "kernel_constraint": null, "bias_constraint": null}, "inbound_nodes": [[["leaky_re_lu_2", 0, 0, {}]]]}, {"name": "backbone.dark2.1.cv3.1.bn", "class_name": "BatchNormalization", "config": {"name": "backbone.dark2.1.cv3.1.bn", "trainable": false, "axis": -1, "momentum": 0.97, "epsilon": 0.001, "center": true, "scale": true, "beta_initializer": {"class_name": "Zeros", "config": {}}, "gamma_initializer": {"class_name": "Ones", "config": {}}, "moving_mean_initializer": {"class_name": "Zeros", "config": {}}, "moving_variance_initializer": {"class_name": "Ones", "config": {}}, "beta_regularizer": null, "gamma_regularizer": null, "beta_constraint": null, "gamma_constraint": null}, "inbound_nodes": [[["backbone.dark2.1.cv3.1.conv", 0, 0, {}]]]}, {"name": "backbone.dark2.1.cv1.bn", "class_name": "BatchNormalization", "config": {"name": "backbone.dark2.1.cv1.bn", "trainable": false, "axis": -1, "momentum": 0.97, "epsilon": 0.001, "center": true, "scale": true, "beta_initializer": {"class_name": "Zeros", "config": {}}, "gamma_initializer": {"class_name": "Ones", "config": {}}, "moving_mean_initializer": {"class_name": "Zeros", "config": {}}, "moving_variance_initializer": {"class_name": "Ones", "config": {}}, "beta_regularizer": null, "gamma_regularizer": null, "beta_constraint": null, "gamma_constraint": null}, "inbound_nodes": [[["backbone.dark2.1.cv1.conv", 0, 0, {}]]]}, {"name": "leaky_re_lu_6", "class_name": "LeakyReLU", "config": {"name": "leaky_re_lu_6", "trainable": false, "alpha": 0.10000000149011612}, "inbound_nodes": [[["backbone.dark2.1.cv3.1.bn", 0, 0, {}]]]}, {"name": "leaky_re_lu_3", "class_name": "LeakyReLU", "config": {"name": "leaky_re_lu_3", "trainable": false, "alpha": 0.10000000149011612}, "inbound_nodes": [[["backbone.dark2.1.cv1.bn", 0, 0, {}]]]}, {"name": "concatenate_1", "class_name": "Concatenate", "config": {"name": "concatenate_1", "trainable": false, "axis": -1}, "inbound_nodes": [[["leaky_re_lu_6", 0, 0, {}], ["leaky_re_lu_5", 0, 0, {}], ["leaky_re_lu_4", 0, 0, {}], ["leaky_re_lu_3", 0, 0, {}]]]}, {"name": "backbone.dark2.1.cv4.conv", "class_name": "Conv2D", "config": {"name": "backbone.dark2.1.cv4.conv", "trainable": false, "filters": 64, "kernel_size": [1, 1], "strides": [1, 1], "padding": "same", "data_format": "channels_last", "dilation_rate": [1, 1], "activation": "linear", "use_bias": false, "kernel_initializer": {"class_name": "RandomNormal", "config": {"mean": 0.0, "stddev": 0.02, "seed": null}}, "bias_initializer": {"class_name": "Zeros", "config": {}}, "kernel_regularizer": null, "bias_regularizer": null, "activity_regularizer": null, "kernel_constraint": null, "bias_constraint": null}, "inbound_nodes": [[["concatenate_1", 0, 0, {}]]]}, {"name": "backbone.dark2.1.cv4.bn", "class_name": "BatchNormalization", "config": {"name": "backbone.dark2.1.cv4.bn", "trainable": false, "axis": -1, "momentum": 0.97, "epsilon": 0.001, "center": true, "scale": true, "beta_initializer": {"class_name": "Zeros", "config": {}}, "gamma_initializer": {"class_name": "Ones", "config": {}}, "moving_mean_initializer": {"class_name": "Zeros", "config": {}}, "moving_variance_initializer": {"class_name": "Ones", "config": {}}, "beta_regularizer": null, "gamma_regularizer": null, "beta_constraint": null, "gamma_constraint": null}, "inbound_nodes": [[["backbone.dark2.1.cv4.conv", 0, 0, {}]]]}, {"name": "leaky_re_lu_7", "class_name": "LeakyReLU", "config": {"name": "leaky_re_lu_7", "trainable": false, "alpha": 0.10000000149011612}, "inbound_nodes": [[["backbone.dark2.1.cv4.bn", 0, 0, {}]]]}, {"name": "max_pooling2d_1", "class_name": "MaxPooling2D", "config": {"name": "max_pooling2d_1", "trainable": false, "pool_size": [2, 2], "padding": "valid", "strides": [2, 2], "data_format": "channels_last"}, "inbound_nodes": [[["leaky_re_lu_7", 0, 0, {}]]]}, {"name": "backbone.dark3.1.cv2.conv", "class_name": "Conv2D", "config": {"name": "backbone.dark3.1.cv2.conv", "trainable": false, "filters": 64, "kernel_size": [1, 1], "strides": [1, 1], "padding": "same", "data_format": "channels_last", "dilation_rate": [1, 1], "activation": "linear", "use_bias": false, "kernel_initializer": {"class_name": "RandomNormal", "config": {"mean": 0.0, "stddev": 0.02, "seed": null}}, "bias_initializer": {"class_name": "Zeros", "config": {}}, "kernel_regularizer": null, "bias_regularizer": null, "activity_regularizer": null, "kernel_constraint": null, "bias_constraint": null}, "inbound_nodes": [[["max_pooling2d_1", 0, 0, {}]]]}, {"name": "backbone.dark3.1.cv2.bn", "class_name": "BatchNormalization", "config": {"name": "backbone.dark3.1.cv2.bn", "trainable": false, "axis": -1, "momentum": 0.97, "epsilon": 0.001, "center": true, "scale": true, "beta_initializer": {"class_name": "Zeros", "config": {}}, "gamma_initializer": {"class_name": "Ones", "config": {}}, "moving_mean_initializer": {"class_name": "Zeros", "config": {}}, "moving_variance_initializer": {"class_name": "Ones", "config": {}}, "beta_regularizer": null, "gamma_regularizer": null, "beta_constraint": null, "gamma_constraint": null}, "inbound_nodes": [[["backbone.dark3.1.cv2.conv", 0, 0, {}]]]}, {"name": "leaky_re_lu_9", "class_name": "LeakyReLU", "config": {"name": "leaky_re_lu_9", "trainable": false, "alpha": 0.10000000149011612}, "inbound_nodes": [[["backbone.dark3.1.cv2.bn", 0, 0, {}]]]}, {"name": "backbone.dark3.1.cv3.0.conv", "class_name": "Conv2D", "config": {"name": "backbone.dark3.1.cv3.0.conv", "trainable": false, "filters": 64, "kernel_size": [3, 3], "strides": [1, 1], "padding": "same", "data_format": "channels_last", "dilation_rate": [1, 1], "activation": "linear", "use_bias": false, "kernel_initializer": {"class_name": "RandomNormal", "config": {"mean": 0.0, "stddev": 0.02, "seed": null}}, "bias_initializer": {"class_name": "Zeros", "config": {}}, "kernel_regularizer": null, "bias_regularizer": null, "activity_regularizer": null, "kernel_constraint": null, "bias_constraint": null}, "inbound_nodes": [[["leaky_re_lu_9", 0, 0, {}]]]}, {"name": "backbone.dark3.1.cv3.0.bn", "class_name": "BatchNormalization", "config": {"name": "backbone.dark3.1.cv3.0.bn", "trainable": false, "axis": -1, "momentum": 0.97, "epsilon": 0.001, "center": true, "scale": true, "beta_initializer": {"class_name": "Zeros", "config": {}}, "gamma_initializer": {"class_name": "Ones", "config": {}}, "moving_mean_initializer": {"class_name": "Zeros", "config": {}}, "moving_variance_initializer": {"class_name": "Ones", "config": {}}, "beta_regularizer": null, "gamma_regularizer": null, "beta_constraint": null, "gamma_constraint": null}, "inbound_nodes": [[["backbone.dark3.1.cv3.0.conv", 0, 0, {}]]]}, {"name": "leaky_re_lu_10", "class_name": "LeakyReLU", "config": {"name": "leaky_re_lu_10", "trainable": false, "alpha": 0.10000000149011612}, "inbound_nodes": [[["backbone.dark3.1.cv3.0.bn", 0, 0, {}]]]}, {"name": "backbone.dark3.1.cv3.1.conv", "class_name": "Conv2D", "config": {"name": "backbone.dark3.1.cv3.1.conv", "trainable": false, "filters": 64, "kernel_size": [3, 3], "strides": [1, 1], "padding": "same", "data_format": "channels_last", "dilation_rate": [1, 1], "activation": "linear", "use_bias": false, "kernel_initializer": {"class_name": "RandomNormal", "config": {"mean": 0.0, "stddev": 0.02, "seed": null}}, "bias_initializer": {"class_name": "Zeros", "config": {}}, "kernel_regularizer": null, "bias_regularizer": null, "activity_regularizer": null, "kernel_constraint": null, "bias_constraint": null}, "inbound_nodes": [[["leaky_re_lu_10", 0, 0, {}]]]}, {"name": "backbone.dark3.1.cv1.conv", "class_name": "Conv2D", "config": {"name": "backbone.dark3.1.cv1.conv", "trainable": false, "filters": 64, "kernel_size": [1, 1], "strides": [1, 1], "padding": "same", "data_format": "channels_last", "dilation_rate": [1, 1], "activation": "linear", "use_bias": false, "kernel_initializer": {"class_name": "RandomNormal", "config": {"mean": 0.0, "stddev": 0.02, "seed": null}}, "bias_initializer": {"class_name": "Zeros", "config": {}}, "kernel_regularizer": null, "bias_regularizer": null, "activity_regularizer": null, "kernel_constraint": null, "bias_constraint": null}, "inbound_nodes": [[["max_pooling2d_1", 0, 0, {}]]]}, {"name": "backbone.dark3.1.cv3.1.bn", "class_name": "BatchNormalization", "config": {"name": "backbone.dark3.1.cv3.1.bn", "trainable": false, "axis": -1, "momentum": 0.97, "epsilon": 0.001, "center": true, "scale": true, "beta_initializer": {"class_name": "Zeros", "config": {}}, "gamma_initializer": {"class_name": "Ones", "config": {}}, "moving_mean_initializer": {"class_name": "Zeros", "config": {}}, "moving_variance_initializer": {"class_name": "Ones", "config": {}}, "beta_regularizer": null, "gamma_regularizer": null, "beta_constraint": null, "gamma_constraint": null}, "inbound_nodes": [[["backbone.dark3.1.cv3.1.conv", 0, 0, {}]]]}, {"name": "backbone.dark3.1.cv1.bn", "class_name": "BatchNormalization", "config": {"name": "backbone.dark3.1.cv1.bn", "trainable": false, "axis": -1, "momentum": 0.97, "epsilon": 0.001, "center": true, "scale": true, "beta_initializer": {"class_name": "Zeros", "config": {}}, "gamma_initializer": {"class_name": "Ones", "config": {}}, "moving_mean_initializer": {"class_name": "Zeros", "config": {}}, "moving_variance_initializer": {"class_name": "Ones", "config": {}}, "beta_regularizer": null, "gamma_regularizer": null, "beta_constraint": null, "gamma_constraint": null}, "inbound_nodes": [[["backbone.dark3.1.cv1.conv", 0, 0, {}]]]}, {"name": "leaky_re_lu_11", "class_name": "LeakyReLU", "config": {"name": "leaky_re_lu_11", "trainable": false, "alpha": 0.10000000149011612}, "inbound_nodes": [[["backbone.dark3.1.cv3.1.bn", 0, 0, {}]]]}, {"name": "leaky_re_lu_8", "class_name": "LeakyReLU", "config": {"name": "leaky_re_lu_8", "trainable": false, "alpha": 0.10000000149011612}, "inbound_nodes": [[["backbone.dark3.1.cv1.bn", 0, 0, {}]]]}, {"name": "concatenate_2", "class_name": "Concatenate", "config": {"name": "concatenate_2", "trainable": false, "axis": -1}, "inbound_nodes": [[["leaky_re_lu_11", 0, 0, {}], ["leaky_re_lu_10", 0, 0, {}], ["leaky_re_lu_9", 0, 0, {}], ["leaky_re_lu_8", 0, 0, {}]]]}, {"name": "backbone.dark3.1.cv4.conv", "class_name": "Conv2D", "config": {"name": "backbone.dark3.1.cv4.conv", "trainable": false, "filters": 128, "kernel_size": [1, 1], "strides": [1, 1], "padding": "same", "data_format": "channels_last", "dilation_rate": [1, 1], "activation": "linear", "use_bias": false, "kernel_initializer": {"class_name": "RandomNormal", "config": {"mean": 0.0, "stddev": 0.02, "seed": null}}, "bias_initializer": {"class_name": "Zeros", "config": {}}, "kernel_regularizer": null, "bias_regularizer": null, "activity_regularizer": null, "kernel_constraint": null, "bias_constraint": null}, "inbound_nodes": [[["concatenate_2", 0, 0, {}]]]}, {"name": "backbone.dark3.1.cv4.bn", "class_name": "BatchNormalization", "config": {"name": "backbone.dark3.1.cv4.bn", "trainable": false, "axis": -1, "momentum": 0.97, "epsilon": 0.001, "center": true, "scale": true, "beta_initializer": {"class_name": "Zeros", "config": {}}, "gamma_initializer": {"class_name": "Ones", "config": {}}, "moving_mean_initializer": {"class_name": "Zeros", "config": {}}, "moving_variance_initializer": {"class_name": "Ones", "config": {}}, "beta_regularizer": null, "gamma_regularizer": null, "beta_constraint": null, "gamma_constraint": null}, "inbound_nodes": [[["backbone.dark3.1.cv4.conv", 0, 0, {}]]]}, {"name": "leaky_re_lu_12", "class_name": "LeakyReLU", "config": {"name": "leaky_re_lu_12", "trainable": false, "alpha": 0.10000000149011612}, "inbound_nodes": [[["backbone.dark3.1.cv4.bn", 0, 0, {}]]]}, {"name": "max_pooling2d_2", "class_name": "MaxPooling2D", "config": {"name": "max_pooling2d_2", "trainable": false, "pool_size": [2, 2], "padding": "valid", "strides": [2, 2], "data_format": "channels_last"}, "inbound_nodes": [[["leaky_re_lu_12", 0, 0, {}]]]}, {"name": "backbone.dark4.1.cv2.conv", "class_name": "Conv2D", "config": {"name": "backbone.dark4.1.cv2.conv", "trainable": false, "filters": 128, "kernel_size": [1, 1], "strides": [1, 1], "padding": "same", "data_format": "channels_last", "dilation_rate": [1, 1], "activation": "linear", "use_bias": false, "kernel_initializer": {"class_name": "RandomNormal", "config": {"mean": 0.0, "stddev": 0.02, "seed": null}}, "bias_initializer": {"class_name": "Zeros", "config": {}}, "kernel_regularizer": null, "bias_regularizer": null, "activity_regularizer": null, "kernel_constraint": null, "bias_constraint": null}, "inbound_nodes": [[["max_pooling2d_2", 0, 0, {}]]]}, {"name": "backbone.dark4.1.cv2.bn", "class_name": "BatchNormalization", "config": {"name": "backbone.dark4.1.cv2.bn", "trainable": false, "axis": -1, "momentum": 0.97, "epsilon": 0.001, "center": true, "scale": true, "beta_initializer": {"class_name": "Zeros", "config": {}}, "gamma_initializer": {"class_name": "Ones", "config": {}}, "moving_mean_initializer": {"class_name": "Zeros", "config": {}}, "moving_variance_initializer": {"class_name": "Ones", "config": {}}, "beta_regularizer": null, "gamma_regularizer": null, "beta_constraint": null, "gamma_constraint": null}, "inbound_nodes": [[["backbone.dark4.1.cv2.conv", 0, 0, {}]]]}, {"name": "leaky_re_lu_14", "class_name": "LeakyReLU", "config": {"name": "leaky_re_lu_14", "trainable": false, "alpha": 0.10000000149011612}, "inbound_nodes": [[["backbone.dark4.1.cv2.bn", 0, 0, {}]]]}, {"name": "backbone.dark4.1.cv3.0.conv", "class_name": "Conv2D", "config": {"name": "backbone.dark4.1.cv3.0.conv", "trainable": false, "filters": 128, "kernel_size": [3, 3], "strides": [1, 1], "padding": "same", "data_format": "channels_last", "dilation_rate": [1, 1], "activation": "linear", "use_bias": false, "kernel_initializer": {"class_name": "RandomNormal", "config": {"mean": 0.0, "stddev": 0.02, "seed": null}}, "bias_initializer": {"class_name": "Zeros", "config": {}}, "kernel_regularizer": null, "bias_regularizer": null, "activity_regularizer": null, "kernel_constraint": null, "bias_constraint": null}, "inbound_nodes": [[["leaky_re_lu_14", 0, 0, {}]]]}, {"name": "backbone.dark4.1.cv3.0.bn", "class_name": "BatchNormalization", "config": {"name": "backbone.dark4.1.cv3.0.bn", "trainable": false, "axis": -1, "momentum": 0.97, "epsilon": 0.001, "center": true, "scale": true, "beta_initializer": {"class_name": "Zeros", "config": {}}, "gamma_initializer": {"class_name": "Ones", "config": {}}, "moving_mean_initializer": {"class_name": "Zeros", "config": {}}, "moving_variance_initializer": {"class_name": "Ones", "config": {}}, "beta_regularizer": null, "gamma_regularizer": null, "beta_constraint": null, "gamma_constraint": null}, "inbound_nodes": [[["backbone.dark4.1.cv3.0.conv", 0, 0, {}]]]}, {"name": "leaky_re_lu_15", "class_name": "LeakyReLU", "config": {"name": "leaky_re_lu_15", "trainable": false, "alpha": 0.10000000149011612}, "inbound_nodes": [[["backbone.dark4.1.cv3.0.bn", 0, 0, {}]]]}, {"name": "backbone.dark4.1.cv3.1.conv", "class_name": "Conv2D", "config": {"name": "backbone.dark4.1.cv3.1.conv", "trainable": false, "filters": 128, "kernel_size": [3, 3], "strides": [1, 1], "padding": "same", "data_format": "channels_last", "dilation_rate": [1, 1], "activation": "linear", "use_bias": false, "kernel_initializer": {"class_name": "RandomNormal", "config": {"mean": 0.0, "stddev": 0.02, "seed": null}}, "bias_initializer": {"class_name": "Zeros", "config": {}}, "kernel_regularizer": null, "bias_regularizer": null, "activity_regularizer": null, "kernel_constraint": null, "bias_constraint": null}, "inbound_nodes": [[["leaky_re_lu_15", 0, 0, {}]]]}, {"name": "backbone.dark4.1.cv1.conv", "class_name": "Conv2D", "config": {"name": "backbone.dark4.1.cv1.conv", "trainable": false, "filters": 128, "kernel_size": [1, 1], "strides": [1, 1], "padding": "same", "data_format": "channels_last", "dilation_rate": [1, 1], "activation": "linear", "use_bias": false, "kernel_initializer": {"class_name": "RandomNormal", "config": {"mean": 0.0, "stddev": 0.02, "seed": null}}, "bias_initializer": {"class_name": "Zeros", "config": {}}, "kernel_regularizer": null, "bias_regularizer": null, "activity_regularizer": null, "kernel_constraint": null, "bias_constraint": null}, "inbound_nodes": [[["max_pooling2d_2", 0, 0, {}]]]}, {"name": "backbone.dark4.1.cv3.1.bn", "class_name": "BatchNormalization", "config": {"name": "backbone.dark4.1.cv3.1.bn", "trainable": false, "axis": -1, "momentum": 0.97, "epsilon": 0.001, "center": true, "scale": true, "beta_initializer": {"class_name": "Zeros", "config": {}}, "gamma_initializer": {"class_name": "Ones", "config": {}}, "moving_mean_initializer": {"class_name": "Zeros", "config": {}}, "moving_variance_initializer": {"class_name": "Ones", "config": {}}, "beta_regularizer": null, "gamma_regularizer": null, "beta_constraint": null, "gamma_constraint": null}, "inbound_nodes": [[["backbone.dark4.1.cv3.1.conv", 0, 0, {}]]]}, {"name": "backbone.dark4.1.cv1.bn", "class_name": "BatchNormalization", "config": {"name": "backbone.dark4.1.cv1.bn", "trainable": false, "axis": -1, "momentum": 0.97, "epsilon": 0.001, "center": true, "scale": true, "beta_initializer": {"class_name": "Zeros", "config": {}}, "gamma_initializer": {"class_name": "Ones", "config": {}}, "moving_mean_initializer": {"class_name": "Zeros", "config": {}}, "moving_variance_initializer": {"class_name": "Ones", "config": {}}, "beta_regularizer": null, "gamma_regularizer": null, "beta_constraint": null, "gamma_constraint": null}, "inbound_nodes": [[["backbone.dark4.1.cv1.conv", 0, 0, {}]]]}, {"name": "leaky_re_lu_16", "class_name": "LeakyReLU", "config": {"name": "leaky_re_lu_16", "trainable": false, "alpha": 0.10000000149011612}, "inbound_nodes": [[["backbone.dark4.1.cv3.1.bn", 0, 0, {}]]]}, {"name": "leaky_re_lu_13", "class_name": "LeakyReLU", "config": {"name": "leaky_re_lu_13", "trainable": false, "alpha": 0.10000000149011612}, "inbound_nodes": [[["backbone.dark4.1.cv1.bn", 0, 0, {}]]]}, {"name": "concatenate_3", "class_name": "Concatenate", "config": {"name": "concatenate_3", "trainable": false, "axis": -1}, "inbound_nodes": [[["leaky_re_lu_16", 0, 0, {}], ["leaky_re_lu_15", 0, 0, {}], ["leaky_re_lu_14", 0, 0, {}], ["leaky_re_lu_13", 0, 0, {}]]]}, {"name": "backbone.dark4.1.cv4.conv", "class_name": "Conv2D", "config": {"name": "backbone.dark4.1.cv4.conv", "trainable": false, "filters": 256, "kernel_size": [1, 1], "strides": [1, 1], "padding": "same", "data_format": "channels_last", "dilation_rate": [1, 1], "activation": "linear", "use_bias": false, "kernel_initializer": {"class_name": "RandomNormal", "config": {"mean": 0.0, "stddev": 0.02, "seed": null}}, "bias_initializer": {"class_name": "Zeros", "config": {}}, "kernel_regularizer": null, "bias_regularizer": null, "activity_regularizer": null, "kernel_constraint": null, "bias_constraint": null}, "inbound_nodes": [[["concatenate_3", 0, 0, {}]]]}, {"name": "backbone.dark4.1.cv4.bn", "class_name": "BatchNormalization", "config": {"name": "backbone.dark4.1.cv4.bn", "trainable": false, "axis": -1, "momentum": 0.97, "epsilon": 0.001, "center": true, "scale": true, "beta_initializer": {"class_name": "Zeros", "config": {}}, "gamma_initializer": {"class_name": "Ones", "config": {}}, "moving_mean_initializer": {"class_name": "Zeros", "config": {}}, "moving_variance_initializer": {"class_name": "Ones", "config": {}}, "beta_regularizer": null, "gamma_regularizer": null, "beta_constraint": null, "gamma_constraint": null}, "inbound_nodes": [[["backbone.dark4.1.cv4.conv", 0, 0, {}]]]}, {"name": "leaky_re_lu_17", "class_name": "LeakyReLU", "config": {"name": "leaky_re_lu_17", "trainable": false, "alpha": 0.10000000149011612}, "inbound_nodes": [[["backbone.dark4.1.cv4.bn", 0, 0, {}]]]}, {"name": "max_pooling2d_3", "class_name": "MaxPooling2D", "config": {"name": "max_pooling2d_3", "trainable": false, "pool_size": [2, 2], "padding": "valid", "strides": [2, 2], "data_format": "channels_last"}, "inbound_nodes": [[["leaky_re_lu_17", 0, 0, {}]]]}, {"name": "backbone.dark5.1.cv2.conv", "class_name": "Conv2D", "config": {"name": "backbone.dark5.1.cv2.conv", "trainable": false, "filters": 256, "kernel_size": [1, 1], "strides": [1, 1], "padding": "same", "data_format": "channels_last", "dilation_rate": [1, 1], "activation": "linear", "use_bias": false, "kernel_initializer": {"class_name": "RandomNormal", "config": {"mean": 0.0, "stddev": 0.02, "seed": null}}, "bias_initializer": {"class_name": "Zeros", "config": {}}, "kernel_regularizer": null, "bias_regularizer": null, "activity_regularizer": null, "kernel_constraint": null, "bias_constraint": null}, "inbound_nodes": [[["max_pooling2d_3", 0, 0, {}]]]}, {"name": "backbone.dark5.1.cv2.bn", "class_name": "BatchNormalization", "config": {"name": "backbone.dark5.1.cv2.bn", "trainable": false, "axis": -1, "momentum": 0.97, "epsilon": 0.001, "center": true, "scale": true, "beta_initializer": {"class_name": "Zeros", "config": {}}, "gamma_initializer": {"class_name": "Ones", "config": {}}, "moving_mean_initializer": {"class_name": "Zeros", "config": {}}, "moving_variance_initializer": {"class_name": "Ones", "config": {}}, "beta_regularizer": null, "gamma_regularizer": null, "beta_constraint": null, "gamma_constraint": null}, "inbound_nodes": [[["backbone.dark5.1.cv2.conv", 0, 0, {}]]]}, {"name": "leaky_re_lu_19", "class_name": "LeakyReLU", "config": {"name": "leaky_re_lu_19", "trainable": false, "alpha": 0.10000000149011612}, "inbound_nodes": [[["backbone.dark5.1.cv2.bn", 0, 0, {}]]]}, {"name": "backbone.dark5.1.cv3.0.conv", "class_name": "Conv2D", "config": {"name": "backbone.dark5.1.cv3.0.conv", "trainable": false, "filters": 256, "kernel_size": [3, 3], "strides": [1, 1], "padding": "same", "data_format": "channels_last", "dilation_rate": [1, 1], "activation": "linear", "use_bias": false, "kernel_initializer": {"class_name": "RandomNormal", "config": {"mean": 0.0, "stddev": 0.02, "seed": null}}, "bias_initializer": {"class_name": "Zeros", "config": {}}, "kernel_regularizer": null, "bias_regularizer": null, "activity_regularizer": null, "kernel_constraint": null, "bias_constraint": null}, "inbound_nodes": [[["leaky_re_lu_19", 0, 0, {}]]]}, {"name": "backbone.dark5.1.cv3.0.bn", "class_name": "BatchNormalization", "config": {"name": "backbone.dark5.1.cv3.0.bn", "trainable": false, "axis": -1, "momentum": 0.97, "epsilon": 0.001, "center": true, "scale": true, "beta_initializer": {"class_name": "Zeros", "config": {}}, "gamma_initializer": {"class_name": "Ones", "config": {}}, "moving_mean_initializer": {"class_name": "Zeros", "config": {}}, "moving_variance_initializer": {"class_name": "Ones", "config": {}}, "beta_regularizer": null, "gamma_regularizer": null, "beta_constraint": null, "gamma_constraint": null}, "inbound_nodes": [[["backbone.dark5.1.cv3.0.conv", 0, 0, {}]]]}, {"name": "leaky_re_lu_20", "class_name": "LeakyReLU", "config": {"name": "leaky_re_lu_20", "trainable": false, "alpha": 0.10000000149011612}, "inbound_nodes": [[["backbone.dark5.1.cv3.0.bn", 0, 0, {}]]]}, {"name": "backbone.dark5.1.cv3.1.conv", "class_name": "Conv2D", "config": {"name": "backbone.dark5.1.cv3.1.conv", "trainable": false, "filters": 256, "kernel_size": [3, 3], "strides": [1, 1], "padding": "same", "data_format": "channels_last", "dilation_rate": [1, 1], "activation": "linear", "use_bias": false, "kernel_initializer": {"class_name": "RandomNormal", "config": {"mean": 0.0, "stddev": 0.02, "seed": null}}, "bias_initializer": {"class_name": "Zeros", "config": {}}, "kernel_regularizer": null, "bias_regularizer": null, "activity_regularizer": null, "kernel_constraint": null, "bias_constraint": null}, "inbound_nodes": [[["leaky_re_lu_20", 0, 0, {}]]]}, {"name": "backbone.dark5.1.cv1.conv", "class_name": "Conv2D", "config": {"name": "backbone.dark5.1.cv1.conv", "trainable": false, "filters": 256, "kernel_size": [1, 1], "strides": [1, 1], "padding": "same", "data_format": "channels_last", "dilation_rate": [1, 1], "activation": "linear", "use_bias": false, "kernel_initializer": {"class_name": "RandomNormal", "config": {"mean": 0.0, "stddev": 0.02, "seed": null}}, "bias_initializer": {"class_name": "Zeros", "config": {}}, "kernel_regularizer": null, "bias_regularizer": null, "activity_regularizer": null, "kernel_constraint": null, "bias_constraint": null}, "inbound_nodes": [[["max_pooling2d_3", 0, 0, {}]]]}, {"name": "backbone.dark5.1.cv3.1.bn", "class_name": "BatchNormalization", "config": {"name": "backbone.dark5.1.cv3.1.bn", "trainable": false, "axis": -1, "momentum": 0.97, "epsilon": 0.001, "center": true, "scale": true, "beta_initializer": {"class_name": "Zeros", "config": {}}, "gamma_initializer": {"class_name": "Ones", "config": {}}, "moving_mean_initializer": {"class_name": "Zeros", "config": {}}, "moving_variance_initializer": {"class_name": "Ones", "config": {}}, "beta_regularizer": null, "gamma_regularizer": null, "beta_constraint": null, "gamma_constraint": null}, "inbound_nodes": [[["backbone.dark5.1.cv3.1.conv", 0, 0, {}]]]}, {"name": "backbone.dark5.1.cv1.bn", "class_name": "BatchNormalization", "config": {"name": "backbone.dark5.1.cv1.bn", "trainable": false, "axis": -1, "momentum": 0.97, "epsilon": 0.001, "center": true, "scale": true, "beta_initializer": {"class_name": "Zeros", "config": {}}, "gamma_initializer": {"class_name": "Ones", "config": {}}, "moving_mean_initializer": {"class_name": "Zeros", "config": {}}, "moving_variance_initializer": {"class_name": "Ones", "config": {}}, "beta_regularizer": null, "gamma_regularizer": null, "beta_constraint": null, "gamma_constraint": null}, "inbound_nodes": [[["backbone.dark5.1.cv1.conv", 0, 0, {}]]]}, {"name": "leaky_re_lu_21", "class_name": "LeakyReLU", "config": {"name": "leaky_re_lu_21", "trainable": false, "alpha": 0.10000000149011612}, "inbound_nodes": [[["backbone.dark5.1.cv3.1.bn", 0, 0, {}]]]}, {"name": "leaky_re_lu_18", "class_name": "LeakyReLU", "config": {"name": "leaky_re_lu_18", "trainable": false, "alpha": 0.10000000149011612}, "inbound_nodes": [[["backbone.dark5.1.cv1.bn", 0, 0, {}]]]}, {"name": "concatenate_4", "class_name": "Concatenate", "config": {"name": "concatenate_4", "trainable": false, "axis": -1}, "inbound_nodes": [[["leaky_re_lu_21", 0, 0, {}], ["leaky_re_lu_20", 0, 0, {}], ["leaky_re_lu_19", 0, 0, {}], ["leaky_re_lu_18", 0, 0, {}]]]}, {"name": "backbone.dark5.1.cv4.conv", "class_name": "Conv2D", "config": {"name": "backbone.dark5.1.cv4.conv", "trainable": false, "filters": 512, "kernel_size": [1, 1], "strides": [1, 1], "padding": "same", "data_format": "channels_last", "dilation_rate": [1, 1], "activation": "linear", "use_bias": false, "kernel_initializer": {"class_name": "RandomNormal", "config": {"mean": 0.0, "stddev": 0.02, "seed": null}}, "bias_initializer": {"class_name": "Zeros", "config": {}}, "kernel_regularizer": null, "bias_regularizer": null, "activity_regularizer": null, "kernel_constraint": null, "bias_constraint": null}, "inbound_nodes": [[["concatenate_4", 0, 0, {}]]]}, {"name": "backbone.dark5.1.cv4.bn", "class_name": "BatchNormalization", "config": {"name": "backbone.dark5.1.cv4.bn", "trainable": false, "axis": -1, "momentum": 0.97, "epsilon": 0.001, "center": true, "scale": true, "beta_initializer": {"class_name": "Zeros", "config": {}}, "gamma_initializer": {"class_name": "Ones", "config": {}}, "moving_mean_initializer": {"class_name": "Zeros", "config": {}}, "moving_variance_initializer": {"class_name": "Ones", "config": {}}, "beta_regularizer": null, "gamma_regularizer": null, "beta_constraint": null, "gamma_constraint": null}, "inbound_nodes": [[["backbone.dark5.1.cv4.conv", 0, 0, {}]]]}, {"name": "leaky_re_lu_22", "class_name": "LeakyReLU", "config": {"name": "leaky_re_lu_22", "trainable": true, "alpha": 0.10000000149011612}, "inbound_nodes": [[["backbone.dark5.1.cv4.bn", 0, 0, {}]]]}, {"name": "sppcspc.cv1.conv", "class_name": "Conv2D", "config": {"name": "sppcspc.cv1.conv", "trainable": true, "filters": 256, "kernel_size": [1, 1], "strides": [1, 1], "padding": "same", "data_format": "channels_last", "dilation_rate": [1, 1], "activation": "linear", "use_bias": false, "kernel_initializer": {"class_name": "RandomNormal", "config": {"mean": 0.0, "stddev": 0.02, "seed": null}}, "bias_initializer": {"class_name": "Zeros", "config": {}}, "kernel_regularizer": null, "bias_regularizer": null, "activity_regularizer": null, "kernel_constraint": null, "bias_constraint": null}, "inbound_nodes": [[["leaky_re_lu_22", 0, 0, {}]]]}, {"name": "sppcspc.cv1.bn", "class_name": "BatchNormalization", "config": {"name": "sppcspc.cv1.bn", "trainable": true, "axis": -1, "momentum": 0.97, "epsilon": 0.001, "center": true, "scale": true, "beta_initializer": {"class_name": "Zeros", "config": {}}, "gamma_initializer": {"class_name": "Ones", "config": {}}, "moving_mean_initializer": {"class_name": "Zeros", "config": {}}, "moving_variance_initializer": {"class_name": "Ones", "config": {}}, "beta_regularizer": null, "gamma_regularizer": null, "beta_constraint": null, "gamma_constraint": null}, "inbound_nodes": [[["sppcspc.cv1.conv", 0, 0, {}]]]}, {"name": "leaky_re_lu_23", "class_name": "LeakyReLU", "config": {"name": "leaky_re_lu_23", "trainable": true, "alpha": 0.10000000149011612}, "inbound_nodes": [[["sppcspc.cv1.bn", 0, 0, {}]]]}, {"name": "max_pooling2d_4", "class_name": "MaxPooling2D", "config": {"name": "max_pooling2d_4", "trainable": true, "pool_size": [13, 13], "padding": "same", "strides": [1, 1], "data_format": "channels_last"}, "inbound_nodes": [[["leaky_re_lu_23", 0, 0, {}]]]}, {"name": "max_pooling2d_5", "class_name": "MaxPooling2D", "config": {"name": "max_pooling2d_5", "trainable": true, "pool_size": [9, 9], "padding": "same", "strides": [1, 1], "data_format": "channels_last"}, "inbound_nodes": [[["leaky_re_lu_23", 0, 0, {}]]]}, {"name": "max_pooling2d_6", "class_name": "MaxPooling2D", "config": {"name": "max_pooling2d_6", "trainable": true, "pool_size": [5, 5], "padding": "same", "strides": [1, 1], "data_format": "channels_last"}, "inbound_nodes": [[["leaky_re_lu_23", 0, 0, {}]]]}, {"name": "concatenate_5", "class_name": "Concatenate", "config": {"name": "concatenate_5", "trainable": true, "axis": -1}, "inbound_nodes": [[["max_pooling2d_4", 0, 0, {}], ["max_pooling2d_5", 0, 0, {}], ["max_pooling2d_6", 0, 0, {}], ["leaky_re_lu_23", 0, 0, {}]]]}, {"name": "sppcspc.cv3.conv", "class_name": "Conv2D", "config": {"name": "sppcspc.cv3.conv", "trainable": true, "filters": 256, "kernel_size": [1, 1], "strides": [1, 1], "padding": "same", "data_format": "channels_last", "dilation_rate": [1, 1], "activation": "linear", "use_bias": false, "kernel_initializer": {"class_name": "RandomNormal", "config": {"mean": 0.0, "stddev": 0.02, "seed": null}}, "bias_initializer": {"class_name": "Zeros", "config": {}}, "kernel_regularizer": null, "bias_regularizer": null, "activity_regularizer": null, "kernel_constraint": null, "bias_constraint": null}, "inbound_nodes": [[["concatenate_5", 0, 0, {}]]]}, {"name": "sppcspc.cv2.conv", "class_name": "Conv2D", "config": {"name": "sppcspc.cv2.conv", "trainable": true, "filters": 256, "kernel_size": [1, 1], "strides": [1, 1], "padding": "same", "data_format": "channels_last", "dilation_rate": [1, 1], "activation": "linear", "use_bias": false, "kernel_initializer": {"class_name": "RandomNormal", "config": {"mean": 0.0, "stddev": 0.02, "seed": null}}, "bias_initializer": {"class_name": "Zeros", "config": {}}, "kernel_regularizer": null, "bias_regularizer": null, "activity_regularizer": null, "kernel_constraint": null, "bias_constraint": null}, "inbound_nodes": [[["leaky_re_lu_22", 0, 0, {}]]]}, {"name": "sppcspc.cv3.bn", "class_name": "BatchNormalization", "config": {"name": "sppcspc.cv3.bn", "trainable": true, "axis": -1, "momentum": 0.97, "epsilon": 0.001, "center": true, "scale": true, "beta_initializer": {"class_name": "Zeros", "config": {}}, "gamma_initializer": {"class_name": "Ones", "config": {}}, "moving_mean_initializer": {"class_name": "Zeros", "config": {}}, "moving_variance_initializer": {"class_name": "Ones", "config": {}}, "beta_regularizer": null, "gamma_regularizer": null, "beta_constraint": null, "gamma_constraint": null}, "inbound_nodes": [[["sppcspc.cv3.conv", 0, 0, {}]]]}, {"name": "sppcspc.cv2.bn", "class_name": "BatchNormalization", "config": {"name": "sppcspc.cv2.bn", "trainable": true, "axis": -1, "momentum": 0.97, "epsilon": 0.001, "center": true, "scale": true, "beta_initializer": {"class_name": "Zeros", "config": {}}, "gamma_initializer": {"class_name": "Ones", "config": {}}, "moving_mean_initializer": {"class_name": "Zeros", "config": {}}, "moving_variance_initializer": {"class_name": "Ones", "config": {}}, "beta_regularizer": null, "gamma_regularizer": null, "beta_constraint": null, "gamma_constraint": null}, "inbound_nodes": [[["sppcspc.cv2.conv", 0, 0, {}]]]}, {"name": "leaky_re_lu_24", "class_name": "LeakyReLU", "config": {"name": "leaky_re_lu_24", "trainable": true, "alpha": 0.10000000149011612}, "inbound_nodes": [[["sppcspc.cv3.bn", 0, 0, {}]]]}, {"name": "leaky_re_lu_25", "class_name": "LeakyReLU", "config": {"name": "leaky_re_lu_25", "trainable": true, "alpha": 0.10000000149011612}, "inbound_nodes": [[["sppcspc.cv2.bn", 0, 0, {}]]]}, {"name": "concatenate_6", "class_name": "Concatenate", "config": {"name": "concatenate_6", "trainable": true, "axis": -1}, "inbound_nodes": [[["leaky_re_lu_24", 0, 0, {}], ["leaky_re_lu_25", 0, 0, {}]]]}, {"name": "sppcspc.cv4.conv", "class_name": "Conv2D", "config": {"name": "sppcspc.cv4.conv", "trainable": true, "filters": 256, "kernel_size": [1, 1], "strides": [1, 1], "padding": "same", "data_format": "channels_last", "dilation_rate": [1, 1], "activation": "linear", "use_bias": false, "kernel_initializer": {"class_name": "RandomNormal", "config": {"mean": 0.0, "stddev": 0.02, "seed": null}}, "bias_initializer": {"class_name": "Zeros", "config": {}}, "kernel_regularizer": null, "bias_regularizer": null, "activity_regularizer": null, "kernel_constraint": null, "bias_constraint": null}, "inbound_nodes": [[["concatenate_6", 0, 0, {}]]]}, {"name": "sppcspc.cv4.bn", "class_name": "BatchNormalization", "config": {"name": "sppcspc.cv4.bn", "trainable": true, "axis": -1, "momentum": 0.97, "epsilon": 0.001, "center": true, "scale": true, "beta_initializer": {"class_name": "Zeros", "config": {}}, "gamma_initializer": {"class_name": "Ones", "config": {}}, "moving_mean_initializer": {"class_name": "Zeros", "config": {}}, "moving_variance_initializer": {"class_name": "Ones", "config": {}}, "beta_regularizer": null, "gamma_regularizer": null, "beta_constraint": null, "gamma_constraint": null}, "inbound_nodes": [[["sppcspc.cv4.conv", 0, 0, {}]]]}, {"name": "leaky_re_lu_26", "class_name": "LeakyReLU", "config": {"name": "leaky_re_lu_26", "trainable": true, "alpha": 0.10000000149011612}, "inbound_nodes": [[["sppcspc.cv4.bn", 0, 0, {}]]]}, {"name": "conv_for_P5.conv", "class_name": "Conv2D", "config": {"name": "conv_for_P5.conv", "trainable": true, "filters": 128, "kernel_size": [1, 1], "strides": [1, 1], "padding": "same", "data_format": "channels_last", "dilation_rate": [1, 1], "activation": "linear", "use_bias": false, "kernel_initializer": {"class_name": "RandomNormal", "config": {"mean": 0.0, "stddev": 0.02, "seed": null}}, "bias_initializer": {"class_name": "Zeros", "config": {}}, "kernel_regularizer": null, "bias_regularizer": null, "activity_regularizer": null, "kernel_constraint": null, "bias_constraint": null}, "inbound_nodes": [[["leaky_re_lu_26", 0, 0, {}]]]}, {"name": "conv_for_feat2.conv", "class_name": "Conv2D", "config": {"name": "conv_for_feat2.conv", "trainable": true, "filters": 128, "kernel_size": [1, 1], "strides": [1, 1], "padding": "same", "data_format": "channels_last", "dilation_rate": [1, 1], "activation": "linear", "use_bias": false, "kernel_initializer": {"class_name": "RandomNormal", "config": {"mean": 0.0, "stddev": 0.02, "seed": null}}, "bias_initializer": {"class_name": "Zeros", "config": {}}, "kernel_regularizer": null, "bias_regularizer": null, "activity_regularizer": null, "kernel_constraint": null, "bias_constraint": null}, "inbound_nodes": [[["leaky_re_lu_17", 0, 0, {}]]]}, {"name": "conv_for_P5.bn", "class_name": "BatchNormalization", "config": {"name": "conv_for_P5.bn", "trainable": true, "axis": -1, "momentum": 0.97, "epsilon": 0.001, "center": true, "scale": true, "beta_initializer": {"class_name": "Zeros", "config": {}}, "gamma_initializer": {"class_name": "Ones", "config": {}}, "moving_mean_initializer": {"class_name": "Zeros", "config": {}}, "moving_variance_initializer": {"class_name": "Ones", "config": {}}, "beta_regularizer": null, "gamma_regularizer": null, "beta_constraint": null, "gamma_constraint": null}, "inbound_nodes": [[["conv_for_P5.conv", 0, 0, {}]]]}, {"name": "conv_for_feat2.bn", "class_name": "BatchNormalization", "config": {"name": "conv_for_feat2.bn", "trainable": true, "axis": -1, "momentum": 0.97, "epsilon": 0.001, "center": true, "scale": true, "beta_initializer": {"class_name": "Zeros", "config": {}}, "gamma_initializer": {"class_name": "Ones", "config": {}}, "moving_mean_initializer": {"class_name": "Zeros", "config": {}}, "moving_variance_initializer": {"class_name": "Ones", "config": {}}, "beta_regularizer": null, "gamma_regularizer": null, "beta_constraint": null, "gamma_constraint": null}, "inbound_nodes": [[["conv_for_feat2.conv", 0, 0, {}]]]}, {"name": "leaky_re_lu_27", "class_name": "LeakyReLU", "config": {"name": "leaky_re_lu_27", "trainable": true, "alpha": 0.10000000149011612}, "inbound_nodes": [[["conv_for_P5.bn", 0, 0, {}]]]}, {"name": "leaky_re_lu_28", "class_name": "LeakyReLU", "config": {"name": "leaky_re_lu_28", "trainable": true, "alpha": 0.10000000149011612}, "inbound_nodes": [[["conv_for_feat2.bn", 0, 0, {}]]]}, {"name": "up_sampling2d_1", "class_name": "UpSampling2D", "config": {"name": "up_sampling2d_1", "trainable": true, "size": [2, 2], "data_format": "channels_last"}, "inbound_nodes": [[["leaky_re_lu_27", 0, 0, {}]]]}, {"name": "concatenate_7", "class_name": "Concatenate", "config": {"name": "concatenate_7", "trainable": true, "axis": -1}, "inbound_nodes": [[["leaky_re_lu_28", 0, 0, {}], ["up_sampling2d_1", 0, 0, {}]]]}, {"name": "conv3_for_upsample1.cv2.conv", "class_name": "Conv2D", "config": {"name": "conv3_for_upsample1.cv2.conv", "trainable": true, "filters": 64, "kernel_size": [1, 1], "strides": [1, 1], "padding": "same", "data_format": "channels_last", "dilation_rate": [1, 1], "activation": "linear", "use_bias": false, "kernel_initializer": {"class_name": "RandomNormal", "config": {"mean": 0.0, "stddev": 0.02, "seed": null}}, "bias_initializer": {"class_name": "Zeros", "config": {}}, "kernel_regularizer": null, "bias_regularizer": null, "activity_regularizer": null, "kernel_constraint": null, "bias_constraint": null}, "inbound_nodes": [[["concatenate_7", 0, 0, {}]]]}, {"name": "conv3_for_upsample1.cv2.bn", "class_name": "BatchNormalization", "config": {"name": "conv3_for_upsample1.cv2.bn", "trainable": true, "axis": -1, "momentum": 0.97, "epsilon": 0.001, "center": true, "scale": true, "beta_initializer": {"class_name": "Zeros", "config": {}}, "gamma_initializer": {"class_name": "Ones", "config": {}}, "moving_mean_initializer": {"class_name": "Zeros", "config": {}}, "moving_variance_initializer": {"class_name": "Ones", "config": {}}, "beta_regularizer": null, "gamma_regularizer": null, "beta_constraint": null, "gamma_constraint": null}, "inbound_nodes": [[["conv3_for_upsample1.cv2.conv", 0, 0, {}]]]}, {"name": "leaky_re_lu_30", "class_name": "LeakyReLU", "config": {"name": "leaky_re_lu_30", "trainable": true, "alpha": 0.10000000149011612}, "inbound_nodes": [[["conv3_for_upsample1.cv2.bn", 0, 0, {}]]]}, {"name": "conv3_for_upsample1.cv3.0.conv", "class_name": "Conv2D", "config": {"name": "conv3_for_upsample1.cv3.0.conv", "trainable": true, "filters": 64, "kernel_size": [3, 3], "strides": [1, 1], "padding": "same", "data_format": "channels_last", "dilation_rate": [1, 1], "activation": "linear", "use_bias": false, "kernel_initializer": {"class_name": "RandomNormal", "config": {"mean": 0.0, "stddev": 0.02, "seed": null}}, "bias_initializer": {"class_name": "Zeros", "config": {}}, "kernel_regularizer": null, "bias_regularizer": null, "activity_regularizer": null, "kernel_constraint": null, "bias_constraint": null}, "inbound_nodes": [[["leaky_re_lu_30", 0, 0, {}]]]}, {"name": "conv3_for_upsample1.cv3.0.bn", "class_name": "BatchNormalization", "config": {"name": "conv3_for_upsample1.cv3.0.bn", "trainable": true, "axis": -1, "momentum": 0.97, "epsilon": 0.001, "center": true, "scale": true, "beta_initializer": {"class_name": "Zeros", "config": {}}, "gamma_initializer": {"class_name": "Ones", "config": {}}, "moving_mean_initializer": {"class_name": "Zeros", "config": {}}, "moving_variance_initializer": {"class_name": "Ones", "config": {}}, "beta_regularizer": null, "gamma_regularizer": null, "beta_constraint": null, "gamma_constraint": null}, "inbound_nodes": [[["conv3_for_upsample1.cv3.0.conv", 0, 0, {}]]]}, {"name": "leaky_re_lu_31", "class_name": "LeakyReLU", "config": {"name": "leaky_re_lu_31", "trainable": true, "alpha": 0.10000000149011612}, "inbound_nodes": [[["conv3_for_upsample1.cv3.0.bn", 0, 0, {}]]]}, {"name": "conv3_for_upsample1.cv3.1.conv", "class_name": "Conv2D", "config": {"name": "conv3_for_upsample1.cv3.1.conv", "trainable": true, "filters": 64, "kernel_size": [3, 3], "strides": [1, 1], "padding": "same", "data_format": "channels_last", "dilation_rate": [1, 1], "activation": "linear", "use_bias": false, "kernel_initializer": {"class_name": "RandomNormal", "config": {"mean": 0.0, "stddev": 0.02, "seed": null}}, "bias_initializer": {"class_name": "Zeros", "config": {}}, "kernel_regularizer": null, "bias_regularizer": null, "activity_regularizer": null, "kernel_constraint": null, "bias_constraint": null}, "inbound_nodes": [[["leaky_re_lu_31", 0, 0, {}]]]}, {"name": "conv3_for_upsample1.cv1.conv", "class_name": "Conv2D", "config": {"name": "conv3_for_upsample1.cv1.conv", "trainable": true, "filters": 64, "kernel_size": [1, 1], "strides": [1, 1], "padding": "same", "data_format": "channels_last", "dilation_rate": [1, 1], "activation": "linear", "use_bias": false, "kernel_initializer": {"class_name": "RandomNormal", "config": {"mean": 0.0, "stddev": 0.02, "seed": null}}, "bias_initializer": {"class_name": "Zeros", "config": {}}, "kernel_regularizer": null, "bias_regularizer": null, "activity_regularizer": null, "kernel_constraint": null, "bias_constraint": null}, "inbound_nodes": [[["concatenate_7", 0, 0, {}]]]}, {"name": "conv3_for_upsample1.cv3.1.bn", "class_name": "BatchNormalization", "config": {"name": "conv3_for_upsample1.cv3.1.bn", "trainable": true, "axis": -1, "momentum": 0.97, "epsilon": 0.001, "center": true, "scale": true, "beta_initializer": {"class_name": "Zeros", "config": {}}, "gamma_initializer": {"class_name": "Ones", "config": {}}, "moving_mean_initializer": {"class_name": "Zeros", "config": {}}, "moving_variance_initializer": {"class_name": "Ones", "config": {}}, "beta_regularizer": null, "gamma_regularizer": null, "beta_constraint": null, "gamma_constraint": null}, "inbound_nodes": [[["conv3_for_upsample1.cv3.1.conv", 0, 0, {}]]]}, {"name": "conv3_for_upsample1.cv1.bn", "class_name": "BatchNormalization", "config": {"name": "conv3_for_upsample1.cv1.bn", "trainable": true, "axis": -1, "momentum": 0.97, "epsilon": 0.001, "center": true, "scale": true, "beta_initializer": {"class_name": "Zeros", "config": {}}, "gamma_initializer": {"class_name": "Ones", "config": {}}, "moving_mean_initializer": {"class_name": "Zeros", "config": {}}, "moving_variance_initializer": {"class_name": "Ones", "config": {}}, "beta_regularizer": null, "gamma_regularizer": null, "beta_constraint": null, "gamma_constraint": null}, "inbound_nodes": [[["conv3_for_upsample1.cv1.conv", 0, 0, {}]]]}, {"name": "leaky_re_lu_32", "class_name": "LeakyReLU", "config": {"name": "leaky_re_lu_32", "trainable": true, "alpha": 0.10000000149011612}, "inbound_nodes": [[["conv3_for_upsample1.cv3.1.bn", 0, 0, {}]]]}, {"name": "leaky_re_lu_29", "class_name": "LeakyReLU", "config": {"name": "leaky_re_lu_29", "trainable": true, "alpha": 0.10000000149011612}, "inbound_nodes": [[["conv3_for_upsample1.cv1.bn", 0, 0, {}]]]}, {"name": "concatenate_8", "class_name": "Concatenate", "config": {"name": "concatenate_8", "trainable": true, "axis": -1}, "inbound_nodes": [[["leaky_re_lu_32", 0, 0, {}], ["leaky_re_lu_31", 0, 0, {}], ["leaky_re_lu_30", 0, 0, {}], ["leaky_re_lu_29", 0, 0, {}]]]}, {"name": "conv3_for_upsample1.cv4.conv", "class_name": "Conv2D", "config": {"name": "conv3_for_upsample1.cv4.conv", "trainable": true, "filters": 128, "kernel_size": [1, 1], "strides": [1, 1], "padding": "same", "data_format": "channels_last", "dilation_rate": [1, 1], "activation": "linear", "use_bias": false, "kernel_initializer": {"class_name": "RandomNormal", "config": {"mean": 0.0, "stddev": 0.02, "seed": null}}, "bias_initializer": {"class_name": "Zeros", "config": {}}, "kernel_regularizer": null, "bias_regularizer": null, "activity_regularizer": null, "kernel_constraint": null, "bias_constraint": null}, "inbound_nodes": [[["concatenate_8", 0, 0, {}]]]}, {"name": "conv3_for_upsample1.cv4.bn", "class_name": "BatchNormalization", "config": {"name": "conv3_for_upsample1.cv4.bn", "trainable": true, "axis": -1, "momentum": 0.97, "epsilon": 0.001, "center": true, "scale": true, "beta_initializer": {"class_name": "Zeros", "config": {}}, "gamma_initializer": {"class_name": "Ones", "config": {}}, "moving_mean_initializer": {"class_name": "Zeros", "config": {}}, "moving_variance_initializer": {"class_name": "Ones", "config": {}}, "beta_regularizer": null, "gamma_regularizer": null, "beta_constraint": null, "gamma_constraint": null}, "inbound_nodes": [[["conv3_for_upsample1.cv4.conv", 0, 0, {}]]]}, {"name": "leaky_re_lu_33", "class_name": "LeakyReLU", "config": {"name": "leaky_re_lu_33", "trainable": true, "alpha": 0.10000000149011612}, "inbound_nodes": [[["conv3_for_upsample1.cv4.bn", 0, 0, {}]]]}, {"name": "conv_for_P4.conv", "class_name": "Conv2D", "config": {"name": "conv_for_P4.conv", "trainable": true, "filters": 64, "kernel_size": [1, 1], "strides": [1, 1], "padding": "same", "data_format": "channels_last", "dilation_rate": [1, 1], "activation": "linear", "use_bias": false, "kernel_initializer": {"class_name": "RandomNormal", "config": {"mean": 0.0, "stddev": 0.02, "seed": null}}, "bias_initializer": {"class_name": "Zeros", "config": {}}, "kernel_regularizer": null, "bias_regularizer": null, "activity_regularizer": null, "kernel_constraint": null, "bias_constraint": null}, "inbound_nodes": [[["leaky_re_lu_33", 0, 0, {}]]]}, {"name": "conv_for_feat1.conv", "class_name": "Conv2D", "config": {"name": "conv_for_feat1.conv", "trainable": true, "filters": 64, "kernel_size": [1, 1], "strides": [1, 1], "padding": "same", "data_format": "channels_last", "dilation_rate": [1, 1], "activation": "linear", "use_bias": false, "kernel_initializer": {"class_name": "RandomNormal", "config": {"mean": 0.0, "stddev": 0.02, "seed": null}}, "bias_initializer": {"class_name": "Zeros", "config": {}}, "kernel_regularizer": null, "bias_regularizer": null, "activity_regularizer": null, "kernel_constraint": null, "bias_constraint": null}, "inbound_nodes": [[["leaky_re_lu_12", 0, 0, {}]]]}, {"name": "conv_for_P4.bn", "class_name": "BatchNormalization", "config": {"name": "conv_for_P4.bn", "trainable": true, "axis": -1, "momentum": 0.97, "epsilon": 0.001, "center": true, "scale": true, "beta_initializer": {"class_name": "Zeros", "config": {}}, "gamma_initializer": {"class_name": "Ones", "config": {}}, "moving_mean_initializer": {"class_name": "Zeros", "config": {}}, "moving_variance_initializer": {"class_name": "Ones", "config": {}}, "beta_regularizer": null, "gamma_regularizer": null, "beta_constraint": null, "gamma_constraint": null}, "inbound_nodes": [[["conv_for_P4.conv", 0, 0, {}]]]}, {"name": "conv_for_feat1.bn", "class_name": "BatchNormalization", "config": {"name": "conv_for_feat1.bn", "trainable": true, "axis": -1, "momentum": 0.97, "epsilon": 0.001, "center": true, "scale": true, "beta_initializer": {"class_name": "Zeros", "config": {}}, "gamma_initializer": {"class_name": "Ones", "config": {}}, "moving_mean_initializer": {"class_name": "Zeros", "config": {}}, "moving_variance_initializer": {"class_name": "Ones", "config": {}}, "beta_regularizer": null, "gamma_regularizer": null, "beta_constraint": null, "gamma_constraint": null}, "inbound_nodes": [[["conv_for_feat1.conv", 0, 0, {}]]]}, {"name": "leaky_re_lu_34", "class_name": "LeakyReLU", "config": {"name": "leaky_re_lu_34", "trainable": true, "alpha": 0.10000000149011612}, "inbound_nodes": [[["conv_for_P4.bn", 0, 0, {}]]]}, {"name": "leaky_re_lu_35", "class_name": "LeakyReLU", "config": {"name": "leaky_re_lu_35", "trainable": true, "alpha": 0.10000000149011612}, "inbound_nodes": [[["conv_for_feat1.bn", 0, 0, {}]]]}, {"name": "up_sampling2d_2", "class_name": "UpSampling2D", "config": {"name": "up_sampling2d_2", "trainable": true, "size": [2, 2], "data_format": "channels_last"}, "inbound_nodes": [[["leaky_re_lu_34", 0, 0, {}]]]}, {"name": "concatenate_9", "class_name": "Concatenate", "config": {"name": "concatenate_9", "trainable": true, "axis": -1}, "inbound_nodes": [[["leaky_re_lu_35", 0, 0, {}], ["up_sampling2d_2", 0, 0, {}]]]}, {"name": "conv3_for_upsample2.cv2.conv", "class_name": "Conv2D", "config": {"name": "conv3_for_upsample2.cv2.conv", "trainable": true, "filters": 32, "kernel_size": [1, 1], "strides": [1, 1], "padding": "same", "data_format": "channels_last", "dilation_rate": [1, 1], "activation": "linear", "use_bias": false, "kernel_initializer": {"class_name": "RandomNormal", "config": {"mean": 0.0, "stddev": 0.02, "seed": null}}, "bias_initializer": {"class_name": "Zeros", "config": {}}, "kernel_regularizer": null, "bias_regularizer": null, "activity_regularizer": null, "kernel_constraint": null, "bias_constraint": null}, "inbound_nodes": [[["concatenate_9", 0, 0, {}]]]}, {"name": "conv3_for_upsample2.cv2.bn", "class_name": "BatchNormalization", "config": {"name": "conv3_for_upsample2.cv2.bn", "trainable": true, "axis": -1, "momentum": 0.97, "epsilon": 0.001, "center": true, "scale": true, "beta_initializer": {"class_name": "Zeros", "config": {}}, "gamma_initializer": {"class_name": "Ones", "config": {}}, "moving_mean_initializer": {"class_name": "Zeros", "config": {}}, "moving_variance_initializer": {"class_name": "Ones", "config": {}}, "beta_regularizer": null, "gamma_regularizer": null, "beta_constraint": null, "gamma_constraint": null}, "inbound_nodes": [[["conv3_for_upsample2.cv2.conv", 0, 0, {}]]]}, {"name": "leaky_re_lu_37", "class_name": "LeakyReLU", "config": {"name": "leaky_re_lu_37", "trainable": true, "alpha": 0.10000000149011612}, "inbound_nodes": [[["conv3_for_upsample2.cv2.bn", 0, 0, {}]]]}, {"name": "conv3_for_upsample2.cv3.0.conv", "class_name": "Conv2D", "config": {"name": "conv3_for_upsample2.cv3.0.conv", "trainable": true, "filters": 32, "kernel_size": [3, 3], "strides": [1, 1], "padding": "same", "data_format": "channels_last", "dilation_rate": [1, 1], "activation": "linear", "use_bias": false, "kernel_initializer": {"class_name": "RandomNormal", "config": {"mean": 0.0, "stddev": 0.02, "seed": null}}, "bias_initializer": {"class_name": "Zeros", "config": {}}, "kernel_regularizer": null, "bias_regularizer": null, "activity_regularizer": null, "kernel_constraint": null, "bias_constraint": null}, "inbound_nodes": [[["leaky_re_lu_37", 0, 0, {}]]]}, {"name": "conv3_for_upsample2.cv3.0.bn", "class_name": "BatchNormalization", "config": {"name": "conv3_for_upsample2.cv3.0.bn", "trainable": true, "axis": -1, "momentum": 0.97, "epsilon": 0.001, "center": true, "scale": true, "beta_initializer": {"class_name": "Zeros", "config": {}}, "gamma_initializer": {"class_name": "Ones", "config": {}}, "moving_mean_initializer": {"class_name": "Zeros", "config": {}}, "moving_variance_initializer": {"class_name": "Ones", "config": {}}, "beta_regularizer": null, "gamma_regularizer": null, "beta_constraint": null, "gamma_constraint": null}, "inbound_nodes": [[["conv3_for_upsample2.cv3.0.conv", 0, 0, {}]]]}, {"name": "leaky_re_lu_38", "class_name": "LeakyReLU", "config": {"name": "leaky_re_lu_38", "trainable": true, "alpha": 0.10000000149011612}, "inbound_nodes": [[["conv3_for_upsample2.cv3.0.bn", 0, 0, {}]]]}, {"name": "conv3_for_upsample2.cv3.1.conv", "class_name": "Conv2D", "config": {"name": "conv3_for_upsample2.cv3.1.conv", "trainable": true, "filters": 32, "kernel_size": [3, 3], "strides": [1, 1], "padding": "same", "data_format": "channels_last", "dilation_rate": [1, 1], "activation": "linear", "use_bias": false, "kernel_initializer": {"class_name": "RandomNormal", "config": {"mean": 0.0, "stddev": 0.02, "seed": null}}, "bias_initializer": {"class_name": "Zeros", "config": {}}, "kernel_regularizer": null, "bias_regularizer": null, "activity_regularizer": null, "kernel_constraint": null, "bias_constraint": null}, "inbound_nodes": [[["leaky_re_lu_38", 0, 0, {}]]]}, {"name": "conv3_for_upsample2.cv1.conv", "class_name": "Conv2D", "config": {"name": "conv3_for_upsample2.cv1.conv", "trainable": true, "filters": 32, "kernel_size": [1, 1], "strides": [1, 1], "padding": "same", "data_format": "channels_last", "dilation_rate": [1, 1], "activation": "linear", "use_bias": false, "kernel_initializer": {"class_name": "RandomNormal", "config": {"mean": 0.0, "stddev": 0.02, "seed": null}}, "bias_initializer": {"class_name": "Zeros", "config": {}}, "kernel_regularizer": null, "bias_regularizer": null, "activity_regularizer": null, "kernel_constraint": null, "bias_constraint": null}, "inbound_nodes": [[["concatenate_9", 0, 0, {}]]]}, {"name": "conv3_for_upsample2.cv3.1.bn", "class_name": "BatchNormalization", "config": {"name": "conv3_for_upsample2.cv3.1.bn", "trainable": true, "axis": -1, "momentum": 0.97, "epsilon": 0.001, "center": true, "scale": true, "beta_initializer": {"class_name": "Zeros", "config": {}}, "gamma_initializer": {"class_name": "Ones", "config": {}}, "moving_mean_initializer": {"class_name": "Zeros", "config": {}}, "moving_variance_initializer": {"class_name": "Ones", "config": {}}, "beta_regularizer": null, "gamma_regularizer": null, "beta_constraint": null, "gamma_constraint": null}, "inbound_nodes": [[["conv3_for_upsample2.cv3.1.conv", 0, 0, {}]]]}, {"name": "conv3_for_upsample2.cv1.bn", "class_name": "BatchNormalization", "config": {"name": "conv3_for_upsample2.cv1.bn", "trainable": true, "axis": -1, "momentum": 0.97, "epsilon": 0.001, "center": true, "scale": true, "beta_initializer": {"class_name": "Zeros", "config": {}}, "gamma_initializer": {"class_name": "Ones", "config": {}}, "moving_mean_initializer": {"class_name": "Zeros", "config": {}}, "moving_variance_initializer": {"class_name": "Ones", "config": {}}, "beta_regularizer": null, "gamma_regularizer": null, "beta_constraint": null, "gamma_constraint": null}, "inbound_nodes": [[["conv3_for_upsample2.cv1.conv", 0, 0, {}]]]}, {"name": "leaky_re_lu_39", "class_name": "LeakyReLU", "config": {"name": "leaky_re_lu_39", "trainable": true, "alpha": 0.10000000149011612}, "inbound_nodes": [[["conv3_for_upsample2.cv3.1.bn", 0, 0, {}]]]}, {"name": "leaky_re_lu_36", "class_name": "LeakyReLU", "config": {"name": "leaky_re_lu_36", "trainable": true, "alpha": 0.10000000149011612}, "inbound_nodes": [[["conv3_for_upsample2.cv1.bn", 0, 0, {}]]]}, {"name": "concatenate_10", "class_name": "Concatenate", "config": {"name": "concatenate_10", "trainable": true, "axis": -1}, "inbound_nodes": [[["leaky_re_lu_39", 0, 0, {}], ["leaky_re_lu_38", 0, 0, {}], ["leaky_re_lu_37", 0, 0, {}], ["leaky_re_lu_36", 0, 0, {}]]]}, {"name": "conv3_for_upsample2.cv4.conv", "class_name": "Conv2D", "config": {"name": "conv3_for_upsample2.cv4.conv", "trainable": true, "filters": 64, "kernel_size": [1, 1], "strides": [1, 1], "padding": "same", "data_format": "channels_last", "dilation_rate": [1, 1], "activation": "linear", "use_bias": false, "kernel_initializer": {"class_name": "RandomNormal", "config": {"mean": 0.0, "stddev": 0.02, "seed": null}}, "bias_initializer": {"class_name": "Zeros", "config": {}}, "kernel_regularizer": null, "bias_regularizer": null, "activity_regularizer": null, "kernel_constraint": null, "bias_constraint": null}, "inbound_nodes": [[["concatenate_10", 0, 0, {}]]]}, {"name": "conv3_for_upsample2.cv4.bn", "class_name": "BatchNormalization", "config": {"name": "conv3_for_upsample2.cv4.bn", "trainable": true, "axis": -1, "momentum": 0.97, "epsilon": 0.001, "center": true, "scale": true, "beta_initializer": {"class_name": "Zeros", "config": {}}, "gamma_initializer": {"class_name": "Ones", "config": {}}, "moving_mean_initializer": {"class_name": "Zeros", "config": {}}, "moving_variance_initializer": {"class_name": "Ones", "config": {}}, "beta_regularizer": null, "gamma_regularizer": null, "beta_constraint": null, "gamma_constraint": null}, "inbound_nodes": [[["conv3_for_upsample2.cv4.conv", 0, 0, {}]]]}, {"name": "leaky_re_lu_40", "class_name": "LeakyReLU", "config": {"name": "leaky_re_lu_40", "trainable": true, "alpha": 0.10000000149011612}, "inbound_nodes": [[["conv3_for_upsample2.cv4.bn", 0, 0, {}]]]}, {"name": "zero_padding2d_3", "class_name": "ZeroPadding2D", "config": {"name": "zero_padding2d_3", "trainable": true, "padding": [[1, 1], [1, 1]], "data_format": "channels_last"}, "inbound_nodes": [[["leaky_re_lu_40", 0, 0, {}]]]}, {"name": "down_sample1.conv", "class_name": "Conv2D", "config": {"name": "down_sample1.conv", "trainable": true, "filters": 128, "kernel_size": [3, 3], "strides": [2, 2], "padding": "valid", "data_format": "channels_last", "dilation_rate": [1, 1], "activation": "linear", "use_bias": false, "kernel_initializer": {"class_name": "RandomNormal", "config": {"mean": 0.0, "stddev": 0.02, "seed": null}}, "bias_initializer": {"class_name": "Zeros", "config": {}}, "kernel_regularizer": null, "bias_regularizer": null, "activity_regularizer": null, "kernel_constraint": null, "bias_constraint": null}, "inbound_nodes": [[["zero_padding2d_3", 0, 0, {}]]]}, {"name": "down_sample1.bn", "class_name": "BatchNormalization", "config": {"name": "down_sample1.bn", "trainable": true, "axis": -1, "momentum": 0.97, "epsilon": 0.001, "center": true, "scale": true, "beta_initializer": {"class_name": "Zeros", "config": {}}, "gamma_initializer": {"class_name": "Ones", "config": {}}, "moving_mean_initializer": {"class_name": "Zeros", "config": {}}, "moving_variance_initializer": {"class_name": "Ones", "config": {}}, "beta_regularizer": null, "gamma_regularizer": null, "beta_constraint": null, "gamma_constraint": null}, "inbound_nodes": [[["down_sample1.conv", 0, 0, {}]]]}, {"name": "leaky_re_lu_41", "class_name": "LeakyReLU", "config": {"name": "leaky_re_lu_41", "trainable": true, "alpha": 0.10000000149011612}, "inbound_nodes": [[["down_sample1.bn", 0, 0, {}]]]}, {"name": "concatenate_11", "class_name": "Concatenate", "config": {"name": "concatenate_11", "trainable": true, "axis": -1}, "inbound_nodes": [[["leaky_re_lu_41", 0, 0, {}], ["leaky_re_lu_33", 0, 0, {}]]]}, {"name": "conv3_for_downsample1.cv2.conv", "class_name": "Conv2D", "config": {"name": "conv3_for_downsample1.cv2.conv", "trainable": true, "filters": 64, "kernel_size": [1, 1], "strides": [1, 1], "padding": "same", "data_format": "channels_last", "dilation_rate": [1, 1], "activation": "linear", "use_bias": false, "kernel_initializer": {"class_name": "RandomNormal", "config": {"mean": 0.0, "stddev": 0.02, "seed": null}}, "bias_initializer": {"class_name": "Zeros", "config": {}}, "kernel_regularizer": null, "bias_regularizer": null, "activity_regularizer": null, "kernel_constraint": null, "bias_constraint": null}, "inbound_nodes": [[["concatenate_11", 0, 0, {}]]]}, {"name": "conv3_for_downsample1.cv2.bn", "class_name": "BatchNormalization", "config": {"name": "conv3_for_downsample1.cv2.bn", "trainable": true, "axis": -1, "momentum": 0.97, "epsilon": 0.001, "center": true, "scale": true, "beta_initializer": {"class_name": "Zeros", "config": {}}, "gamma_initializer": {"class_name": "Ones", "config": {}}, "moving_mean_initializer": {"class_name": "Zeros", "config": {}}, "moving_variance_initializer": {"class_name": "Ones", "config": {}}, "beta_regularizer": null, "gamma_regularizer": null, "beta_constraint": null, "gamma_constraint": null}, "inbound_nodes": [[["conv3_for_downsample1.cv2.conv", 0, 0, {}]]]}, {"name": "leaky_re_lu_43", "class_name": "LeakyReLU", "config": {"name": "leaky_re_lu_43", "trainable": true, "alpha": 0.10000000149011612}, "inbound_nodes": [[["conv3_for_downsample1.cv2.bn", 0, 0, {}]]]}, {"name": "conv3_for_downsample1.cv3.0.conv", "class_name": "Conv2D", "config": {"name": "conv3_for_downsample1.cv3.0.conv", "trainable": true, "filters": 64, "kernel_size": [3, 3], "strides": [1, 1], "padding": "same", "data_format": "channels_last", "dilation_rate": [1, 1], "activation": "linear", "use_bias": false, "kernel_initializer": {"class_name": "RandomNormal", "config": {"mean": 0.0, "stddev": 0.02, "seed": null}}, "bias_initializer": {"class_name": "Zeros", "config": {}}, "kernel_regularizer": null, "bias_regularizer": null, "activity_regularizer": null, "kernel_constraint": null, "bias_constraint": null}, "inbound_nodes": [[["leaky_re_lu_43", 0, 0, {}]]]}, {"name": "conv3_for_downsample1.cv3.0.bn", "class_name": "BatchNormalization", "config": {"name": "conv3_for_downsample1.cv3.0.bn", "trainable": true, "axis": -1, "momentum": 0.97, "epsilon": 0.001, "center": true, "scale": true, "beta_initializer": {"class_name": "Zeros", "config": {}}, "gamma_initializer": {"class_name": "Ones", "config": {}}, "moving_mean_initializer": {"class_name": "Zeros", "config": {}}, "moving_variance_initializer": {"class_name": "Ones", "config": {}}, "beta_regularizer": null, "gamma_regularizer": null, "beta_constraint": null, "gamma_constraint": null}, "inbound_nodes": [[["conv3_for_downsample1.cv3.0.conv", 0, 0, {}]]]}, {"name": "leaky_re_lu_44", "class_name": "LeakyReLU", "config": {"name": "leaky_re_lu_44", "trainable": true, "alpha": 0.10000000149011612}, "inbound_nodes": [[["conv3_for_downsample1.cv3.0.bn", 0, 0, {}]]]}, {"name": "conv3_for_downsample1.cv3.1.conv", "class_name": "Conv2D", "config": {"name": "conv3_for_downsample1.cv3.1.conv", "trainable": true, "filters": 64, "kernel_size": [3, 3], "strides": [1, 1], "padding": "same", "data_format": "channels_last", "dilation_rate": [1, 1], "activation": "linear", "use_bias": false, "kernel_initializer": {"class_name": "RandomNormal", "config": {"mean": 0.0, "stddev": 0.02, "seed": null}}, "bias_initializer": {"class_name": "Zeros", "config": {}}, "kernel_regularizer": null, "bias_regularizer": null, "activity_regularizer": null, "kernel_constraint": null, "bias_constraint": null}, "inbound_nodes": [[["leaky_re_lu_44", 0, 0, {}]]]}, {"name": "conv3_for_downsample1.cv1.conv", "class_name": "Conv2D", "config": {"name": "conv3_for_downsample1.cv1.conv", "trainable": true, "filters": 64, "kernel_size": [1, 1], "strides": [1, 1], "padding": "same", "data_format": "channels_last", "dilation_rate": [1, 1], "activation": "linear", "use_bias": false, "kernel_initializer": {"class_name": "RandomNormal", "config": {"mean": 0.0, "stddev": 0.02, "seed": null}}, "bias_initializer": {"class_name": "Zeros", "config": {}}, "kernel_regularizer": null, "bias_regularizer": null, "activity_regularizer": null, "kernel_constraint": null, "bias_constraint": null}, "inbound_nodes": [[["concatenate_11", 0, 0, {}]]]}, {"name": "conv3_for_downsample1.cv3.1.bn", "class_name": "BatchNormalization", "config": {"name": "conv3_for_downsample1.cv3.1.bn", "trainable": true, "axis": -1, "momentum": 0.97, "epsilon": 0.001, "center": true, "scale": true, "beta_initializer": {"class_name": "Zeros", "config": {}}, "gamma_initializer": {"class_name": "Ones", "config": {}}, "moving_mean_initializer": {"class_name": "Zeros", "config": {}}, "moving_variance_initializer": {"class_name": "Ones", "config": {}}, "beta_regularizer": null, "gamma_regularizer": null, "beta_constraint": null, "gamma_constraint": null}, "inbound_nodes": [[["conv3_for_downsample1.cv3.1.conv", 0, 0, {}]]]}, {"name": "conv3_for_downsample1.cv1.bn", "class_name": "BatchNormalization", "config": {"name": "conv3_for_downsample1.cv1.bn", "trainable": true, "axis": -1, "momentum": 0.97, "epsilon": 0.001, "center": true, "scale": true, "beta_initializer": {"class_name": "Zeros", "config": {}}, "gamma_initializer": {"class_name": "Ones", "config": {}}, "moving_mean_initializer": {"class_name": "Zeros", "config": {}}, "moving_variance_initializer": {"class_name": "Ones", "config": {}}, "beta_regularizer": null, "gamma_regularizer": null, "beta_constraint": null, "gamma_constraint": null}, "inbound_nodes": [[["conv3_for_downsample1.cv1.conv", 0, 0, {}]]]}, {"name": "leaky_re_lu_45", "class_name": "LeakyReLU", "config": {"name": "leaky_re_lu_45", "trainable": true, "alpha": 0.10000000149011612}, "inbound_nodes": [[["conv3_for_downsample1.cv3.1.bn", 0, 0, {}]]]}, {"name": "leaky_re_lu_42", "class_name": "LeakyReLU", "config": {"name": "leaky_re_lu_42", "trainable": true, "alpha": 0.10000000149011612}, "inbound_nodes": [[["conv3_for_downsample1.cv1.bn", 0, 0, {}]]]}, {"name": "concatenate_12", "class_name": "Concatenate", "config": {"name": "concatenate_12", "trainable": true, "axis": -1}, "inbound_nodes": [[["leaky_re_lu_45", 0, 0, {}], ["leaky_re_lu_44", 0, 0, {}], ["leaky_re_lu_43", 0, 0, {}], ["leaky_re_lu_42", 0, 0, {}]]]}, {"name": "conv3_for_downsample1.cv4.conv", "class_name": "Conv2D", "config": {"name": "conv3_for_downsample1.cv4.conv", "trainable": true, "filters": 128, "kernel_size": [1, 1], "strides": [1, 1], "padding": "same", "data_format": "channels_last", "dilation_rate": [1, 1], "activation": "linear", "use_bias": false, "kernel_initializer": {"class_name": "RandomNormal", "config": {"mean": 0.0, "stddev": 0.02, "seed": null}}, "bias_initializer": {"class_name": "Zeros", "config": {}}, "kernel_regularizer": null, "bias_regularizer": null, "activity_regularizer": null, "kernel_constraint": null, "bias_constraint": null}, "inbound_nodes": [[["concatenate_12", 0, 0, {}]]]}, {"name": "conv3_for_downsample1.cv4.bn", "class_name": "BatchNormalization", "config": {"name": "conv3_for_downsample1.cv4.bn", "trainable": true, "axis": -1, "momentum": 0.97, "epsilon": 0.001, "center": true, "scale": true, "beta_initializer": {"class_name": "Zeros", "config": {}}, "gamma_initializer": {"class_name": "Ones", "config": {}}, "moving_mean_initializer": {"class_name": "Zeros", "config": {}}, "moving_variance_initializer": {"class_name": "Ones", "config": {}}, "beta_regularizer": null, "gamma_regularizer": null, "beta_constraint": null, "gamma_constraint": null}, "inbound_nodes": [[["conv3_for_downsample1.cv4.conv", 0, 0, {}]]]}, {"name": "leaky_re_lu_46", "class_name": "LeakyReLU", "config": {"name": "leaky_re_lu_46", "trainable": true, "alpha": 0.10000000149011612}, "inbound_nodes": [[["conv3_for_downsample1.cv4.bn", 0, 0, {}]]]}, {"name": "zero_padding2d_4", "class_name": "ZeroPadding2D", "config": {"name": "zero_padding2d_4", "trainable": true, "padding": [[1, 1], [1, 1]], "data_format": "channels_last"}, "inbound_nodes": [[["leaky_re_lu_46", 0, 0, {}]]]}, {"name": "down_sample2.conv", "class_name": "Conv2D", "config": {"name": "down_sample2.conv", "trainable": true, "filters": 256, "kernel_size": [3, 3], "strides": [2, 2], "padding": "valid", "data_format": "channels_last", "dilation_rate": [1, 1], "activation": "linear", "use_bias": false, "kernel_initializer": {"class_name": "RandomNormal", "config": {"mean": 0.0, "stddev": 0.02, "seed": null}}, "bias_initializer": {"class_name": "Zeros", "config": {}}, "kernel_regularizer": null, "bias_regularizer": null, "activity_regularizer": null, "kernel_constraint": null, "bias_constraint": null}, "inbound_nodes": [[["zero_padding2d_4", 0, 0, {}]]]}, {"name": "down_sample2.bn", "class_name": "BatchNormalization", "config": {"name": "down_sample2.bn", "trainable": true, "axis": -1, "momentum": 0.97, "epsilon": 0.001, "center": true, "scale": true, "beta_initializer": {"class_name": "Zeros", "config": {}}, "gamma_initializer": {"class_name": "Ones", "config": {}}, "moving_mean_initializer": {"class_name": "Zeros", "config": {}}, "moving_variance_initializer": {"class_name": "Ones", "config": {}}, "beta_regularizer": null, "gamma_regularizer": null, "beta_constraint": null, "gamma_constraint": null}, "inbound_nodes": [[["down_sample2.conv", 0, 0, {}]]]}, {"name": "leaky_re_lu_47", "class_name": "LeakyReLU", "config": {"name": "leaky_re_lu_47", "trainable": true, "alpha": 0.10000000149011612}, "inbound_nodes": [[["down_sample2.bn", 0, 0, {}]]]}, {"name": "concatenate_13", "class_name": "Concatenate", "config": {"name": "concatenate_13", "trainable": true, "axis": -1}, "inbound_nodes": [[["leaky_re_lu_47", 0, 0, {}], ["leaky_re_lu_26", 0, 0, {}]]]}, {"name": "conv3_for_downsample2.cv2.conv", "class_name": "Conv2D", "config": {"name": "conv3_for_downsample2.cv2.conv", "trainable": true, "filters": 128, "kernel_size": [1, 1], "strides": [1, 1], "padding": "same", "data_format": "channels_last", "dilation_rate": [1, 1], "activation": "linear", "use_bias": false, "kernel_initializer": {"class_name": "RandomNormal", "config": {"mean": 0.0, "stddev": 0.02, "seed": null}}, "bias_initializer": {"class_name": "Zeros", "config": {}}, "kernel_regularizer": null, "bias_regularizer": null, "activity_regularizer": null, "kernel_constraint": null, "bias_constraint": null}, "inbound_nodes": [[["concatenate_13", 0, 0, {}]]]}, {"name": "conv3_for_downsample2.cv2.bn", "class_name": "BatchNormalization", "config": {"name": "conv3_for_downsample2.cv2.bn", "trainable": true, "axis": -1, "momentum": 0.97, "epsilon": 0.001, "center": true, "scale": true, "beta_initializer": {"class_name": "Zeros", "config": {}}, "gamma_initializer": {"class_name": "Ones", "config": {}}, "moving_mean_initializer": {"class_name": "Zeros", "config": {}}, "moving_variance_initializer": {"class_name": "Ones", "config": {}}, "beta_regularizer": null, "gamma_regularizer": null, "beta_constraint": null, "gamma_constraint": null}, "inbound_nodes": [[["conv3_for_downsample2.cv2.conv", 0, 0, {}]]]}, {"name": "leaky_re_lu_49", "class_name": "LeakyReLU", "config": {"name": "leaky_re_lu_49", "trainable": true, "alpha": 0.10000000149011612}, "inbound_nodes": [[["conv3_for_downsample2.cv2.bn", 0, 0, {}]]]}, {"name": "conv3_for_downsample2.cv3.0.conv", "class_name": "Conv2D", "config": {"name": "conv3_for_downsample2.cv3.0.conv", "trainable": true, "filters": 128, "kernel_size": [3, 3], "strides": [1, 1], "padding": "same", "data_format": "channels_last", "dilation_rate": [1, 1], "activation": "linear", "use_bias": false, "kernel_initializer": {"class_name": "RandomNormal", "config": {"mean": 0.0, "stddev": 0.02, "seed": null}}, "bias_initializer": {"class_name": "Zeros", "config": {}}, "kernel_regularizer": null, "bias_regularizer": null, "activity_regularizer": null, "kernel_constraint": null, "bias_constraint": null}, "inbound_nodes": [[["leaky_re_lu_49", 0, 0, {}]]]}, {"name": "conv3_for_downsample2.cv3.0.bn", "class_name": "BatchNormalization", "config": {"name": "conv3_for_downsample2.cv3.0.bn", "trainable": true, "axis": -1, "momentum": 0.97, "epsilon": 0.001, "center": true, "scale": true, "beta_initializer": {"class_name": "Zeros", "config": {}}, "gamma_initializer": {"class_name": "Ones", "config": {}}, "moving_mean_initializer": {"class_name": "Zeros", "config": {}}, "moving_variance_initializer": {"class_name": "Ones", "config": {}}, "beta_regularizer": null, "gamma_regularizer": null, "beta_constraint": null, "gamma_constraint": null}, "inbound_nodes": [[["conv3_for_downsample2.cv3.0.conv", 0, 0, {}]]]}, {"name": "leaky_re_lu_50", "class_name": "LeakyReLU", "config": {"name": "leaky_re_lu_50", "trainable": true, "alpha": 0.10000000149011612}, "inbound_nodes": [[["conv3_for_downsample2.cv3.0.bn", 0, 0, {}]]]}, {"name": "conv3_for_downsample2.cv3.1.conv", "class_name": "Conv2D", "config": {"name": "conv3_for_downsample2.cv3.1.conv", "trainable": true, "filters": 128, "kernel_size": [3, 3], "strides": [1, 1], "padding": "same", "data_format": "channels_last", "dilation_rate": [1, 1], "activation": "linear", "use_bias": false, "kernel_initializer": {"class_name": "RandomNormal", "config": {"mean": 0.0, "stddev": 0.02, "seed": null}}, "bias_initializer": {"class_name": "Zeros", "config": {}}, "kernel_regularizer": null, "bias_regularizer": null, "activity_regularizer": null, "kernel_constraint": null, "bias_constraint": null}, "inbound_nodes": [[["leaky_re_lu_50", 0, 0, {}]]]}, {"name": "conv3_for_downsample2.cv1.conv", "class_name": "Conv2D", "config": {"name": "conv3_for_downsample2.cv1.conv", "trainable": true, "filters": 128, "kernel_size": [1, 1], "strides": [1, 1], "padding": "same", "data_format": "channels_last", "dilation_rate": [1, 1], "activation": "linear", "use_bias": false, "kernel_initializer": {"class_name": "RandomNormal", "config": {"mean": 0.0, "stddev": 0.02, "seed": null}}, "bias_initializer": {"class_name": "Zeros", "config": {}}, "kernel_regularizer": null, "bias_regularizer": null, "activity_regularizer": null, "kernel_constraint": null, "bias_constraint": null}, "inbound_nodes": [[["concatenate_13", 0, 0, {}]]]}, {"name": "conv3_for_downsample2.cv3.1.bn", "class_name": "BatchNormalization", "config": {"name": "conv3_for_downsample2.cv3.1.bn", "trainable": true, "axis": -1, "momentum": 0.97, "epsilon": 0.001, "center": true, "scale": true, "beta_initializer": {"class_name": "Zeros", "config": {}}, "gamma_initializer": {"class_name": "Ones", "config": {}}, "moving_mean_initializer": {"class_name": "Zeros", "config": {}}, "moving_variance_initializer": {"class_name": "Ones", "config": {}}, "beta_regularizer": null, "gamma_regularizer": null, "beta_constraint": null, "gamma_constraint": null}, "inbound_nodes": [[["conv3_for_downsample2.cv3.1.conv", 0, 0, {}]]]}, {"name": "conv3_for_downsample2.cv1.bn", "class_name": "BatchNormalization", "config": {"name": "conv3_for_downsample2.cv1.bn", "trainable": true, "axis": -1, "momentum": 0.97, "epsilon": 0.001, "center": true, "scale": true, "beta_initializer": {"class_name": "Zeros", "config": {}}, "gamma_initializer": {"class_name": "Ones", "config": {}}, "moving_mean_initializer": {"class_name": "Zeros", "config": {}}, "moving_variance_initializer": {"class_name": "Ones", "config": {}}, "beta_regularizer": null, "gamma_regularizer": null, "beta_constraint": null, "gamma_constraint": null}, "inbound_nodes": [[["conv3_for_downsample2.cv1.conv", 0, 0, {}]]]}, {"name": "leaky_re_lu_51", "class_name": "LeakyReLU", "config": {"name": "leaky_re_lu_51", "trainable": true, "alpha": 0.10000000149011612}, "inbound_nodes": [[["conv3_for_downsample2.cv3.1.bn", 0, 0, {}]]]}, {"name": "leaky_re_lu_48", "class_name": "LeakyReLU", "config": {"name": "leaky_re_lu_48", "trainable": true, "alpha": 0.10000000149011612}, "inbound_nodes": [[["conv3_for_downsample2.cv1.bn", 0, 0, {}]]]}, {"name": "concatenate_14", "class_name": "Concatenate", "config": {"name": "concatenate_14", "trainable": true, "axis": -1}, "inbound_nodes": [[["leaky_re_lu_51", 0, 0, {}], ["leaky_re_lu_50", 0, 0, {}], ["leaky_re_lu_49", 0, 0, {}], ["leaky_re_lu_48", 0, 0, {}]]]}, {"name": "conv3_for_downsample2.cv4.conv", "class_name": "Conv2D", "config": {"name": "conv3_for_downsample2.cv4.conv", "trainable": true, "filters": 256, "kernel_size": [1, 1], "strides": [1, 1], "padding": "same", "data_format": "channels_last", "dilation_rate": [1, 1], "activation": "linear", "use_bias": false, "kernel_initializer": {"class_name": "RandomNormal", "config": {"mean": 0.0, "stddev": 0.02, "seed": null}}, "bias_initializer": {"class_name": "Zeros", "config": {}}, "kernel_regularizer": null, "bias_regularizer": null, "activity_regularizer": null, "kernel_constraint": null, "bias_constraint": null}, "inbound_nodes": [[["concatenate_14", 0, 0, {}]]]}, {"name": "conv3_for_downsample2.cv4.bn", "class_name": "BatchNormalization", "config": {"name": "conv3_for_downsample2.cv4.bn", "trainable": true, "axis": -1, "momentum": 0.97, "epsilon": 0.001, "center": true, "scale": true, "beta_initializer": {"class_name": "Zeros", "config": {}}, "gamma_initializer": {"class_name": "Ones", "config": {}}, "moving_mean_initializer": {"class_name": "Zeros", "config": {}}, "moving_variance_initializer": {"class_name": "Ones", "config": {}}, "beta_regularizer": null, "gamma_regularizer": null, "beta_constraint": null, "gamma_constraint": null}, "inbound_nodes": [[["conv3_for_downsample2.cv4.conv", 0, 0, {}]]]}, {"name": "leaky_re_lu_52", "class_name": "LeakyReLU", "config": {"name": "leaky_re_lu_52", "trainable": true, "alpha": 0.10000000149011612}, "inbound_nodes": [[["conv3_for_downsample2.cv4.bn", 0, 0, {}]]]}, {"name": "rep_conv_3.conv", "class_name": "Conv2D", "config": {"name": "rep_conv_3.conv", "trainable": true, "filters": 512, "kernel_size": [3, 3], "strides": [1, 1], "padding": "same", "data_format": "channels_last", "dilation_rate": [1, 1], "activation": "linear", "use_bias": false, "kernel_initializer": {"class_name": "RandomNormal", "config": {"mean": 0.0, "stddev": 0.02, "seed": null}}, "bias_initializer": {"class_name": "Zeros", "config": {}}, "kernel_regularizer": null, "bias_regularizer": null, "activity_regularizer": null, "kernel_constraint": null, "bias_constraint": null}, "inbound_nodes": [[["leaky_re_lu_52", 0, 0, {}]]]}, {"name": "rep_conv_2.conv", "class_name": "Conv2D", "config": {"name": "rep_conv_2.conv", "trainable": true, "filters": 256, "kernel_size": [3, 3], "strides": [1, 1], "padding": "same", "data_format": "channels_last", "dilation_rate": [1, 1], "activation": "linear", "use_bias": false, "kernel_initializer": {"class_name": "RandomNormal", "config": {"mean": 0.0, "stddev": 0.02, "seed": null}}, "bias_initializer": {"class_name": "Zeros", "config": {}}, "kernel_regularizer": null, "bias_regularizer": null, "activity_regularizer": null, "kernel_constraint": null, "bias_constraint": null}, "inbound_nodes": [[["leaky_re_lu_46", 0, 0, {}]]]}, {"name": "rep_conv_1.conv", "class_name": "Conv2D", "config": {"name": "rep_conv_1.conv", "trainable": true, "filters": 128, "kernel_size": [3, 3], "strides": [1, 1], "padding": "same", "data_format": "channels_last", "dilation_rate": [1, 1], "activation": "linear", "use_bias": false, "kernel_initializer": {"class_name": "RandomNormal", "config": {"mean": 0.0, "stddev": 0.02, "seed": null}}, "bias_initializer": {"class_name": "Zeros", "config": {}}, "kernel_regularizer": null, "bias_regularizer": null, "activity_regularizer": null, "kernel_constraint": null, "bias_constraint": null}, "inbound_nodes": [[["leaky_re_lu_40", 0, 0, {}]]]}, {"name": "rep_conv_3.bn", "class_name": "BatchNormalization", "config": {"name": "rep_conv_3.bn", "trainable": true, "axis": -1, "momentum": 0.97, "epsilon": 0.001, "center": true, "scale": true, "beta_initializer": {"class_name": "Zeros", "config": {}}, "gamma_initializer": {"class_name": "Ones", "config": {}}, "moving_mean_initializer": {"class_name": "Zeros", "config": {}}, "moving_variance_initializer": {"class_name": "Ones", "config": {}}, "beta_regularizer": null, "gamma_regularizer": null, "beta_constraint": null, "gamma_constraint": null}, "inbound_nodes": [[["rep_conv_3.conv", 0, 0, {}]]]}, {"name": "rep_conv_2.bn", "class_name": "BatchNormalization", "config": {"name": "rep_conv_2.bn", "trainable": true, "axis": -1, "momentum": 0.97, "epsilon": 0.001, "center": true, "scale": true, "beta_initializer": {"class_name": "Zeros", "config": {}}, "gamma_initializer": {"class_name": "Ones", "config": {}}, "moving_mean_initializer": {"class_name": "Zeros", "config": {}}, "moving_variance_initializer": {"class_name": "Ones", "config": {}}, "beta_regularizer": null, "gamma_regularizer": null, "beta_constraint": null, "gamma_constraint": null}, "inbound_nodes": [[["rep_conv_2.conv", 0, 0, {}]]]}, {"name": "rep_conv_1.bn", "class_name": "BatchNormalization", "config": {"name": "rep_conv_1.bn", "trainable": true, "axis": -1, "momentum": 0.97, "epsilon": 0.001, "center": true, "scale": true, "beta_initializer": {"class_name": "Zeros", "config": {}}, "gamma_initializer": {"class_name": "Ones", "config": {}}, "moving_mean_initializer": {"class_name": "Zeros", "config": {}}, "moving_variance_initializer": {"class_name": "Ones", "config": {}}, "beta_regularizer": null, "gamma_regularizer": null, "beta_constraint": null, "gamma_constraint": null}, "inbound_nodes": [[["rep_conv_1.conv", 0, 0, {}]]]}, {"name": "leaky_re_lu_55", "class_name": "LeakyReLU", "config": {"name": "leaky_re_lu_55", "trainable": true, "alpha": 0.10000000149011612}, "inbound_nodes": [[["rep_conv_3.bn", 0, 0, {}]]]}, {"name": "leaky_re_lu_54", "class_name": "LeakyReLU", "config": {"name": "leaky_re_lu_54", "trainable": true, "alpha": 0.10000000149011612}, "inbound_nodes": [[["rep_conv_2.bn", 0, 0, {}]]]}, {"name": "leaky_re_lu_53", "class_name": "LeakyReLU", "config": {"name": "leaky_re_lu_53", "trainable": true, "alpha": 0.10000000149011612}, "inbound_nodes": [[["rep_conv_1.bn", 0, 0, {}]]]}, {"name": "yolo_head_P5", "class_name": "Conv2D", "config": {"name": "yolo_head_P5", "trainable": true, "filters": 51, "kernel_size": [1, 1], "strides": [1, 1], "padding": "same", "data_format": "channels_last", "dilation_rate": [1, 1], "activation": "linear", "use_bias": true, "kernel_initializer": {"class_name": "RandomNormal", "config": {"mean": 0.0, "stddev": 0.02, "seed": null}}, "bias_initializer": {"class_name": "Zeros", "config": {}}, "kernel_regularizer": null, "bias_regularizer": null, "activity_regularizer": null, "kernel_constraint": null, "bias_constraint": null}, "inbound_nodes": [[["leaky_re_lu_55", 0, 0, {}]]]}, {"name": "yolo_head_P4", "class_name": "Conv2D", "config": {"name": "yolo_head_P4", "trainable": true, "filters": 51, "kernel_size": [1, 1], "strides": [1, 1], "padding": "same", "data_format": "channels_last", "dilation_rate": [1, 1], "activation": "linear", "use_bias": true, "kernel_initializer": {"class_name": "RandomNormal", "config": {"mean": 0.0, "stddev": 0.02, "seed": null}}, "bias_initializer": {"class_name": "Zeros", "config": {}}, "kernel_regularizer": null, "bias_regularizer": null, "activity_regularizer": null, "kernel_constraint": null, "bias_constraint": null}, "inbound_nodes": [[["leaky_re_lu_54", 0, 0, {}]]]}, {"name": "yolo_head_P3", "class_name": "Conv2D", "config": {"name": "yolo_head_P3", "trainable": true, "filters": 51, "kernel_size": [1, 1], "strides": [1, 1], "padding": "same", "data_format": "channels_last", "dilation_rate": [1, 1], "activation": "linear", "use_bias": true, "kernel_initializer": {"class_name": "RandomNormal", "config": {"mean": 0.0, "stddev": 0.02, "seed": null}}, "bias_initializer": {"class_name": "Zeros", "config": {}}, "kernel_regularizer": null, "bias_regularizer": null, "activity_regularizer": null, "kernel_constraint": null, "bias_constraint": null}, "inbound_nodes": [[["leaky_re_lu_53", 0, 0, {}]]]}, {"name": "input_2", "class_name": "InputLayer", "config": {"batch_input_shape": [null, 20, 20, 3, 2], "dtype": "float32", "sparse": false, "name": "input_2"}, "inbound_nodes": []}, {"name": "input_3", "class_name": "InputLayer", "config": {"batch_input_shape": [null, 40, 40, 3, 2], "dtype": "float32", "sparse": false, "name": "input_3"}, "inbound_nodes": []}, {"name": "input_4", "class_name": "InputLayer", "config": {"batch_input_shape": [null, 80, 80, 3, 2], "dtype": "float32", "sparse": false, "name": "input_4"}, "inbound_nodes": []}, {"name": "input_5", "class_name": "InputLayer", "config": {"batch_input_shape": [null, null, 5], "dtype": "float32", "sparse": false, "name": "input_5"}, "inbound_nodes": []}, {"name": "yolo_loss", "class_name": "Lambda", "config": {"name": "yolo_loss", "trainable": true, "function": ["4woAAAAAAAAAHQAAAA8AAAADAAAAc+YCAAB0AHwDgwF9CnwAZA4ZAIkHfAB8CmQPhQIZAH0LfABk\nAHwKhQIZAH0MdAFqAnwBdAFqA3wLZAIZAIMBgwJ9AWQCfQ1nAIkNZwCJCGcAiQVnAH0OkAF4OnQE\nfAqDAUQAkAFdLH0PdAV8DHwPGQB8AnwDfA8ZABkAiAp8AWQDZASNBVwEfRB9EX0SfRN0AWoGfBJ8\nE2cCgwF9FHQHagh8FIMBZAIZAH0VdAdqAnwBZAEZAHwBZAIZAHwBZAEZAHwBZAIZAGcEZwFnAXQH\nagmDAn0WiA1qCnQHagt0B2oMfBR8FWQQZAVnA4MCfBYUAHQHagx8EWQGZAVkAIUCZgIZAHwVZBGI\nCmQBFwBnA4MCZwJkEoMCgwEBAIgIagp0B2oNiA1kExkAZABkAIUCZABkAIUCZAJmAxkAgwF8DxQA\ngwEBAIgFagp0B2oMfAt8DxkAZAZkAmQBhQJmAhkAfBVkFGcCgwKDAQEAfA5qCnQHagx8C3wPGQBk\nBmQBZAeFAmYCGQB8FWQVZwKDAoMBAQBxXlcAdAdqC4gNZAGDAokNdAdqC4gIZAGDAokIdAdqC4gF\nZAGDAokFdAdqC3wOZAGDAn0OiA1kAGQAhQJkAGQAhQJkAGQFhQJmAxkAiQGIDWQAZACFAmQAZACF\nAmQFZAiFAmYDGQCJC4gNZABkAIUCZABkAIUCZAhkAIUCZgMZAIkDdAdqDnQHagJ0B2oOiAdkFoMC\nZAJrBHQBagOIDYMBgwJkF4MCiQl0B2oIiA2DAWQBGQCJDmQJfRdkCX0YZAl9GWQJfRqHAIcBhwKH\nA4cEhwWHBocHhwiHCYcKhwuHDIcNhw5mD2QKZAuECH0bdAdqD4cNZgFkDGQNhAh8G2QCfBd8GnwY\nfBlnBYMDXAV9HH0XfRp9GH0ZdAdqAnQHahB8F2QBgwJ0AWoDiA2DAYMCfRd8GnwZFwB8GBcAdAdq\nAnQHagiIDYMBZAIZAHQHagmDAhsAfQ18DVMAKRhO6QEAAADpAAAAAFQpAdoJY2FsY19sb3Nz6QQA\nAAAu6QIAAADpBQAAAGcAAAAAAAAAAGMFAAAAAAAAABEAAAAKAAAAEwAAAHPuAQAAdABqAYgQiAAZ\nAHQAagKDAokFiA6IABkAZACIBYUCZABkAYUCZgIZAIkDiA6IABkAZACIBYUCZAFmAhkAiQSICIgA\nGQCJAYgSiAAZAIkGiAqIABkAiQKHEYcUhxVmA2QCZAOECH0FhwCHAYcChwyHA4cEhxGHBYcGhxRm\nCmQEZAWECH0GdABqA3QAagSIBWQGgwJ8BXwGgwNcBX0HfQh9CX0KfQt8AXwHNwB9AWQHdAV8CXQA\nagaIAXwLgwKDAhgAfQx0B2oIdAl8CogNgwKIBmQIZAmNA30NdAdqCHwIdABqBogCfAuDAmQIZAmN\nA30OeOp0CnQLiAeDAYMBRABd2n0PdABqDHQHag10AGoBdABqDnQAagSID4gAGQB8D4MCfAuDAnQA\nag+DAoMBZAeDAn0QfAJ0B2oNdABqBnwMdABqBnQAag50AGoEiA+IABkAfA+DAnwLgwJ8C4MCgwKD\nAYgJFAB8EBsANwB9AnwDdAdqEHQAagZ8DXQAagSID4gAGQB8D4MCgwKIB3wPGQAUAIMBiBMUADcA\nfQN8BHQHag10AGoGfA50AGoGdABqDnQAagSID4gAGQB8D4MCfAuDAnwLgwKDAoMBiAsUAHwQGwCI\nERsANwB9BHH+VwCIAGQHFwB8AXwCfAN8BGYFUwApCk5yBAAAAGMAAAAAAAAAAAUAAAAFAAAAEwAA\nAHOKAAAAdABqAXQAagJkAYMBdANqBIgBgwGDAn0AdABqAXQAagVkAYgAZgKDAXQDagSIAYMBgwJ9\nAXQAagF0AGoFZASDAXQDagSIAYMBgwJ9AnQAagF0AGoFiAJkA2YCgwF0A2oEiAGDAYMCfQN0AGoB\ndABqBYgCgwF0AGoGgwJ9BHwAfAF8AnwDfARmBVMAKQVOcgIAAAByBAAAAHIBAAAAKQJyAgAAAHIE\nAAAAKQfaAnRm2gRjYXN02ghjb25zdGFudNoBS9oFZHR5cGXaBXplcm9z2gRib29sKQXaCm51bV9m\nZ19pbWfaCmNsc190YXJnZXTaCnJlZ190YXJnZXTaCm9ial90YXJnZXTaB2ZnX21hc2spA9oLbnVt\nX2NsYXNzZXPaB291dHB1dHPaEXRvdGFsX251bV9hbmNob3JzqQD6WEM6XFVzZXJzXFVzZXJcRG93\nbmxvYWRzXHlvbG92N190aW55X2tlcmFzXHlvbG92Ny10aW55LWtlcmFzLW1hc3RlclxuZXRzXHlv\nbG9fdHJhaW5pbmcucHnaAmYx6wAAAHMMAAAAAAEYARwBGAEcARQBeih5b2xvX2xvc3MuPGxvY2Fs\ncz4ubG9vcF9ib2R5Ljxsb2NhbHM+LmYxYwAAAAAAAAAACAAAAAkAAAATAAAAc7AAAAB0AGoBiAOI\nABkAdABqAoMCfQB0A3wAiASIBYgBiAiIAogGiAeDCFwFfQF9AH0CfQN9BHQAagF0AGoEiAR0AGoF\nfANkAmQBZwKDAoMCdAZqB4gJgwGDAn0FdABqAXQAagh0AGoBfAF0AGoJgwKIBoMCdABqCnwCZAOD\nAhQAdAZqB4gJgwGDAn0GdABqAXQAagp8AGQEgwJ0BmoHiAmDAYMCfQd8BHwGfAV8B3wAZgVTACkF\nTnIBAAAA6f////9yGQAAAHIZAAAAKQtyBwAAAHIIAAAAcg0AAADaD2dldF9hc3NpZ25tZW50c9oJ\nZ2F0aGVyX25k2gdyZXNoYXBlcgoAAAByCwAAANoHb25lX2hvdNoFaW50MzLaC2V4cGFuZF9kaW1z\nKQhyEgAAANoSZ3RfbWF0Y2hlZF9jbGFzc2Vz2hdwcmVkX2lvdXNfdGhpc19tYXRjaGluZ9oPbWF0\nY2hlZF9ndF9pbmRzcg4AAAByEAAAAHIPAAAAchEAAAApCtoBYtoWYmJveGVzX3ByZWRzX3Blcl9p\nbWFnZdoTY2xzX3ByZWRzX3Blcl9pbWFnZdoIZmdfbWFza3PaE2d0X2Jib3hlc19wZXJfaW1hZ2Xa\nCmd0X2NsYXNzZXNyEwAAANoGbnVtX2d02hNvYmpfcHJlZHNfcGVyX2ltYWdlchQAAAByFgAAAHIX\nAAAA2gJmMvIAAABzDgAAAAABEgECAR4CJgEwARoBeih5b2xvX2xvc3MuPGxvY2Fscz4ubG9vcF9i\nb2R5Ljxsb2NhbHM+LmYycgIAAAByAQAAAFQpAdoLZnJvbV9sb2dpdHMpEXIHAAAAcggAAAByHgAA\nANoEY29uZNoFZXF1YWzaCGJveF9jaW912gxib29sZWFuX21hc2tyCgAAANoTYmluYXJ5X2Nyb3Nz\nZW50cm9wedoOX3Ntb290aF9sYWJlbHPaBXJhbmdl2gNsZW7aB21heGltdW3aA3N1bdoLbG9naWNh\nbF9hbmTaB2Zsb2F0MzLaBG1lYW4pEXIjAAAA2gZudW1fZmfaCGxvc3NfaW912ghsb3NzX29iatoI\nbG9zc19jbHNyGAAAAHIrAAAAcg4AAAByDwAAAHIQAAAAchEAAAByEgAAAFoJX2xvc3NfaW91Wglf\nbG9zc19vYmpaCV9sb3NzX2Nsc9oFbGF5ZXLaB251bV9wb3MpD9oHYmFsYW5jZdoKYmJveF9wcmVk\nc9oJYm94X3JhdGlv2gljbHNfcHJlZHPaCWNsc19yYXRpb3ImAAAA2g9sYWJlbF9zbW9vdGhpbmfa\nBmxhYmVsc9oIbGF5ZXJfaWTaBm5sYWJlbHITAAAA2glvYmpfcHJlZHPaCW9ial9yYXRpb3IUAAAA\nchUAAAApB3IjAAAAciQAAAByJQAAAHInAAAAcigAAAByKQAAAHIqAAAAchcAAADaCWxvb3BfYm9k\nedsAAABzJgAAAAACEggYARQBCAEIAQgCEAceCiABCAMWARYBGAESATACOgEuAUIBehx5b2xvX2xv\nc3MuPGxvY2Fscz4ubG9vcF9ib2R5YwEAAAAAAAAAAgAAAAQAAAAXAAAAcxwAAAB8AHQAagF0AGoC\niACDAWQBGQB0AGoDgwJrAFMAKQJOcgIAAAApBHIHAAAAcggAAADaBXNoYXBlch4AAAApAnIjAAAA\n2gRhcmdzKQFyFAAAAHIWAAAAchcAAADaCDxsYW1iZGE+DQEAAPMAAAAAeht5b2xvX2xvc3MuPGxv\nY2Fscz4uPGxhbWJkYT5yGQAAAHIZAAAAchkAAAByGQAAAHIZAAAAchkAAAByGQAAAHIZAAAAchkA\nAAByGQAAACkRcjQAAAByCgAAAHIIAAAAcgsAAAByMwAAANoWZ2V0X2FuY2hvcnNfYW5kX2RlY29k\nZdoLY29uY2F0ZW5hdGVyBwAAAHJMAAAAcjgAAADaBmFwcGVuZNoGY29uY2F0chwAAADaCW9uZXNf\nbGlrZdoKcmVkdWNlX3N1bdoKd2hpbGVfbG9vcHI1AAAAKR1yTQAAANoLaW5wdXRfc2hhcGXaB2Fu\nY2hvcnPaDGFuY2hvcnNfbWFza3ITAAAAckAAAAByRQAAAHJCAAAAckoAAAByRAAAANoKbnVtX2xh\neWVyc9oGeV90cnVlWgx5b2xvX291dHB1dHPaBGxvc3NaF2lzX2luX2JveGVzX2FuZF9jZW50ZXJz\n2gFs2gRncmlkWghyYXdfcHJlZFoHcHJlZF94eVoHcHJlZF93aFoIcHJlZF9ib3jaAW3aBXNjYWxl\ncjoAAAByPAAAAHI9AAAAcjsAAABySwAAANoBX3IWAAAAKQ9yQAAAAHJBAAAAckIAAAByQwAAAHJE\nAAAAciYAAAByRQAAAHJGAAAAckcAAABySAAAAHITAAAAckkAAABySgAAAHIUAAAAchUAAAByFwAA\nANoJeW9sb19sb3NzfgAAAHNMAAAAAAwIDAgBDAEMBRYCBAEEAQQBBAEEBRIJCAEeBg4CDgEqAUYB\nKgEmASoCDAEMAQwBDAcaARoBGgcmAQ4CBAEEAQQBBAEoMioCGgEkAg==\n", [[0.4, 1.0, 4], 0.01, 0.05, 1, 0.5], null], "function_type": "lambda", "output_shape": [1], "output_shape_type": "raw", "arguments": {"input_shape": [640, 640], "anchors": {"type": "ndarray", "value": [[… "anchors_mask": [[6, 7, 8], [3, 4, 5], [0, 1, 2]], "num_classes": 12, "label_smoothing": 0, "balance": [0.4, 1.0, 4], "box_ratio": 0.05, "obj_ratio": 1.0, "cls_ratio": 0.075}}, "inbound_nodes": [[["yolo_head_P5", 0, 0, {}], ["yolo_head_P4", 0, 0, {}], ["yolo_head_P3", 0, 0, {}], ["input_2", 0, 0, {}], ["input_3", 0, 0, {}], ["input_4", 0, 0, {}], ["input_5", 0, 0, {}]]]}], "input_layers": [["input_1", 0, 0], ["input_2", 0, 0], ["input_3", 0, 0], ["input_4", 0, 0], ["input_5", 0, 0]], "output_layers": [["yolo_loss", 0, 0]]}}, "training_config": {"optimizer_config": {"class_name": "SGD", "config": {"lr": 0.0049944729544222355, "momentum": 0.9369999766349792, "decay": 0.0, "nesterov": true}}, "loss": {"yolo_loss": "<lambda>"}, "metrics": [], "sample_weight_mode": null, "loss_weights": null}}, "weightsManifest": [{"paths": ["group1-shard1of6.bin", "group1-shard2of6.bin", "group1-shard3of6.bin", "group1-shard4of6.bin", "group1-shard5of6.bin", "group1-shard6of6.bin"], "weights": [{"name": "backbone.dark2.0.bn/gamma", "shape": [64], "dtype": "float32"}, {"name": "backbone.dark2.0.bn/beta", "shape": [64], "dtype": "float32"}, {"name": "backbone.dark2.0.bn/moving_mean", "shape": [64], "dtype": "float32"}, {"name": "backbone.dark2.0.bn/moving_variance", "shape": [64], "dtype": "float32"}, {"name": "backbone.dark2.0.conv/kernel", "shape": [3, 3, 32, 64], "dtype": "float32"}, {"name": "backbone.dark2.1.cv1.bn/gamma", "shape": [32], "dtype": "float32"}, {"name": "backbone.dark2.1.cv1.bn/beta", "shape": [32], "dtype": "float32"}, {"name": "backbone.dark2.1.cv1.bn/moving_mean", "shape": [32], "dtype": "float32"}, {"name": "backbone.dark2.1.cv1.bn/moving_variance", "shape": [32], "dtype": "float32"}, {"name": "backbone.dark2.1.cv1.conv/kernel", "shape": [1, 1, 64, 32], "dtype": "float32"}, {"name": "backbone.dark2.1.cv2.bn/gamma", "shape": [32], "dtype": "float32"}, {"name": "backbone.dark2.1.cv2.bn/beta", "shape": [32], "dtype": "float32"}, {"name": "backbone.dark2.1.cv2.bn/moving_mean", "shape": [32], "dtype": "float32"}, {"name": "backbone.dark2.1.cv2.bn/moving_variance", "shape": [32], "dtype": "float32"}, {"name": "backbone.dark2.1.cv2.conv/kernel", "shape": [1, 1, 64, 32], "dtype": "float32"}, {"name": "backbone.dark2.1.cv3.0.bn/gamma", "shape": [32], "dtype": "float32"}, {"name": "backbone.dark2.1.cv3.0.bn/beta", "shape": [32], "dtype": "float32"}, {"name": "backbone.dark2.1.cv3.0.bn/moving_mean", "shape": [32], "dtype": "float32"}, {"name": "backbone.dark2.1.cv3.0.bn/moving_variance", "shape": [32], "dtype": "float32"}, {"name": "backbone.dark2.1.cv3.0.conv/kernel", "shape": [3, 3, 32, 32], "dtype": "float32"}, {"name": "backbone.dark2.1.cv3.1.bn/gamma", "shape": [32], "dtype": "float32"}, {"name": "backbone.dark2.1.cv3.1.bn/beta", "shape": [32], "dtype": "float32"}, {"name": "backbone.dark2.1.cv3.1.bn/moving_mean", "shape": [32], "dtype": "float32"}, {"name": "backbone.dark2.1.cv3.1.bn/moving_variance", "shape": [32], "dtype": "float32"}, {"name": "backbone.dark2.1.cv3.1.conv/kernel", "shape": [3, 3, 32, 32], "dtype": "float32"}, {"name": "backbone.dark2.1.cv4.bn/gamma", "shape": [64], "dtype": "float32"}, {"name": "backbone.dark2.1.cv4.bn/beta", "shape": [64], "dtype": "float32"}, {"name": "backbone.dark2.1.cv4.bn/moving_mean", "shape": [64], "dtype": "float32"}, {"name": "backbone.dark2.1.cv4.bn/moving_variance", "shape": [64], "dtype": "float32"}, {"name": "backbone.dark2.1.cv4.conv/kernel", "shape": [1, 1, 128, 64], "dtype": "float32"}, {"name": "backbone.dark3.1.cv1.bn/gamma", "shape": [64], "dtype": "float32"}, {"name": "backbone.dark3.1.cv1.bn/beta", "shape": [64], "dtype": "float32"}, {"name": "backbone.dark3.1.cv1.bn/moving_mean", "shape": [64], "dtype": "float32"}, {"name": "backbone.dark3.1.cv1.bn/moving_variance", "shape": [64], "dtype": "float32"}, {"name": "backbone.dark3.1.cv1.conv/kernel", "shape": [1, 1, 64, 64], "dtype": "float32"}, {"name": "backbone.dark3.1.cv2.bn/gamma", "shape": [64], "dtype": "float32"}, {"name": "backbone.dark3.1.cv2.bn/beta", "shape": [64], "dtype": "float32"}, {"name": "backbone.dark3.1.cv2.bn/moving_mean", "shape": [64], "dtype": "float32"}, {"name": "backbone.dark3.1.cv2.bn/moving_variance", "shape": [64], "dtype": "float32"}, {"name": "backbone.dark3.1.cv2.conv/kernel", "shape": [1, 1, 64, 64], "dtype": "float32"}, {"name": "backbone.dark3.1.cv3.0.bn/gamma", "shape": [64], "dtype": "float32"}, {"name": "backbone.dark3.1.cv3.0.bn/beta", "shape": [64], "dtype": "float32"}, {"name": "backbone.dark3.1.cv3.0.bn/moving_mean", "shape": [64], "dtype": "float32"}, {"name": "backbone.dark3.1.cv3.0.bn/moving_variance", "shape": [64], "dtype": "float32"}, {"name": "backbone.dark3.1.cv3.0.conv/kernel", "shape": [3, 3, 64, 64], "dtype": "float32"}, {"name": "backbone.dark3.1.cv3.1.bn/gamma", "shape": [64], "dtype": "float32"}, {"name": "backbone.dark3.1.cv3.1.bn/beta", "shape": [64], "dtype": "float32"}, {"name": "backbone.dark3.1.cv3.1.bn/moving_mean", "shape": [64], "dtype": "float32"}, {"name": "backbone.dark3.1.cv3.1.bn/moving_variance", "shape": [64], "dtype": "float32"}, {"name": "backbone.dark3.1.cv3.1.conv/kernel", "shape": [3, 3, 64, 64], "dtype": "float32"}, {"name": "backbone.dark3.1.cv4.bn/gamma", "shape": [128], "dtype": "float32"}, {"name": "backbone.dark3.1.cv4.bn/beta", "shape": [128], "dtype": "float32"}, {"name": "backbone.dark3.1.cv4.bn/moving_mean", "shape": [128], "dtype": "float32"}, {"name": "backbone.dark3.1.cv4.bn/moving_variance", "shape": [128], "dtype": "float32"}, {"name": "backbone.dark3.1.cv4.conv/kernel", "shape": [1, 1, 256, 128], "dtype": "float32"}, {"name": "backbone.dark4.1.cv1.bn/gamma", "shape": [128], "dtype": "float32"}, {"name": "backbone.dark4.1.cv1.bn/beta", "shape": [128], "dtype": "float32"}, {"name": "backbone.dark4.1.cv1.bn/moving_mean", "shape": [128], "dtype": "float32"}, {"name": "backbone.dark4.1.cv1.bn/moving_variance", "shape": [128], "dtype": "float32"}, {"name": "backbone.dark4.1.cv1.conv/kernel", "shape": [1, 1, 128, 128], "dtype": "float32"}, {"name": "backbone.dark4.1.cv2.bn/gamma", "shape": [128], "dtype": "float32"}, {"name": "backbone.dark4.1.cv2.bn/beta", "shape": [128], "dtype": "float32"}, {"name": "backbone.dark4.1.cv2.bn/moving_mean", "shape": [128], "dtype": "float32"}, {"name": "backbone.dark4.1.cv2.bn/moving_variance", "shape": [128], "dtype": "float32"}, {"name": "backbone.dark4.1.cv2.conv/kernel", "shape": [1, 1, 128, 128], "dtype": "float32"}, {"name": "backbone.dark4.1.cv3.0.bn/gamma", "shape": [128], "dtype": "float32"}, {"name": "backbone.dark4.1.cv3.0.bn/beta", "shape": [128], "dtype": "float32"}, {"name": "backbone.dark4.1.cv3.0.bn/moving_mean", "shape": [128], "dtype": "float32"}, {"name": "backbone.dark4.1.cv3.0.bn/moving_variance", "shape": [128], "dtype": "float32"}, {"name": "backbone.dark4.1.cv3.0.conv/kernel", "shape": [3, 3, 128, 128], "dtype": "float32"}, {"name": "backbone.dark4.1.cv3.1.bn/gamma", "shape": [128], "dtype": "float32"}, {"name": "backbone.dark4.1.cv3.1.bn/beta", "shape": [128], "dtype": "float32"}, {"name": "backbone.dark4.1.cv3.1.bn/moving_mean", "shape": [128], "dtype": "float32"}, {"name": "backbone.dark4.1.cv3.1.bn/moving_variance", "shape": [128], "dtype": "float32"}, {"name": "backbone.dark4.1.cv3.1.conv/kernel", "shape": [3, 3, 128, 128], "dtype": "float32"}, {"name": "backbone.dark4.1.cv4.bn/gamma", "shape": [256], "dtype": "float32"}, {"name": "backbone.dark4.1.cv4.bn/beta", "shape": [256], "dtype": "float32"}, {"name": "backbone.dark4.1.cv4.bn/moving_mean", "shape": [256], "dtype": "float32"}, {"name": "backbone.dark4.1.cv4.bn/moving_variance", "shape": [256], "dtype": "float32"}, {"name": "backbone.dark4.1.cv4.conv/kernel", "shape": [1, 1, 512, 256], "dtype": "float32"}, {"name": "backbone.dark5.1.cv1.bn/gamma", "shape": [256], "dtype": "float32"}, {"name": "backbone.dark5.1.cv1.bn/beta", "shape": [256], "dtype": "float32"}, {"name": "backbone.dark5.1.cv1.bn/moving_mean", "shape": [256], "dtype": "float32"}, {"name": "backbone.dark5.1.cv1.bn/moving_variance", "shape": [256], "dtype": "float32"}, {"name": "backbone.dark5.1.cv1.conv/kernel", "shape": [1, 1, 256, 256], "dtype": "float32"}, {"name": "backbone.dark5.1.cv2.bn/gamma", "shape": [256], "dtype": "float32"}, {"name": "backbone.dark5.1.cv2.bn/beta", "shape": [256], "dtype": "float32"}, {"name": "backbone.dark5.1.cv2.bn/moving_mean", "shape": [256], "dtype": "float32"}, {"name": "backbone.dark5.1.cv2.bn/moving_variance", "shape": [256], "dtype": "float32"}, {"name": "backbone.dark5.1.cv2.conv/kernel", "shape": [1, 1, 256, 256], "dtype": "float32"}, {"name": "backbone.dark5.1.cv3.0.bn/gamma", "shape": [256], "dtype": "float32"}, {"name": "backbone.dark5.1.cv3.0.bn/beta", "shape": [256], "dtype": "float32"}, {"name": "backbone.dark5.1.cv3.0.bn/moving_mean", "shape": [256], "dtype": "float32"}, {"name": "backbone.dark5.1.cv3.0.bn/moving_variance", "shape": [256], "dtype": "float32"}, {"name": "backbone.dark5.1.cv3.0.conv/kernel", "shape": [3, 3, 256, 256], "dtype": "float32"}, {"name": "backbone.dark5.1.cv3.1.bn/gamma", "shape": [256], "dtype": "float32"}, {"name": "backbone.dark5.1.cv3.1.bn/beta", "shape": [256], "dtype": "float32"}, {"name": "backbone.dark5.1.cv3.1.bn/moving_mean", "shape": [256], "dtype": "float32"}, {"name": "backbone.dark5.1.cv3.1.bn/moving_variance", "shape": [256], "dtype": "float32"}, {"name": "backbone.dark5.1.cv3.1.conv/kernel", "shape": [3, 3, 256, 256], "dtype": "float32"}, {"name": "backbone.dark5.1.cv4.bn/gamma", "shape": [512], "dtype": "float32"}, {"name": "backbone.dark5.1.cv4.bn/beta", "shape": [512], "dtype": "float32"}, {"name": "backbone.dark5.1.cv4.bn/moving_mean", "shape": [512], "dtype": "float32"}, {"name": "backbone.dark5.1.cv4.bn/moving_variance", "shape": [512], "dtype": "float32"}, {"name": "backbone.dark5.1.cv4.conv/kernel", "shape": [1, 1, 1024, 512], "dtype": "float32"}, {"name": "backbone.stem.bn/gamma", "shape": [32], "dtype": "float32"}, {"name": "backbone.stem.bn/beta", "shape": [32], "dtype": "float32"}, {"name": "backbone.stem.bn/moving_mean", "shape": [32], "dtype": "float32"}, {"name": "backbone.stem.bn/moving_variance", "shape": [32], "dtype": "float32"}, {"name": "backbone.stem.conv/kernel", "shape": [3, 3, 3, 32], "dtype": "float32"}, {"name": "conv3_for_downsample1.cv1.bn/gamma", "shape": [64], "dtype": "float32"}, {"name": "conv3_for_downsample1.cv1.bn/beta", "shape": [64], "dtype": "float32"}, {"name": "conv3_for_downsample1.cv1.bn/moving_mean", "shape": [64], "dtype": "float32"}, {"name": "conv3_for_downsample1.cv1.bn/moving_variance", "shape": [64], "dtype": "float32"}, {"name": "conv3_for_downsample1.cv1.conv/kernel", "shape": [1, 1, 256, 64], "dtype": "float32"}, {"name": "conv3_for_downsample1.cv2.bn/gamma", "shape": [64], "dtype": "float32"}, {"name": "conv3_for_downsample1.cv2.bn/beta", "shape": [64], "dtype": "float32"}, {"name": "conv3_for_downsample1.cv2.bn/moving_mean", "shape": [64], "dtype": "float32"}, {"name": "conv3_for_downsample1.cv2.bn/moving_variance", "shape": [64], "dtype": "float32"}, {"name": "conv3_for_downsample1.cv2.conv/kernel", "shape": [1, 1, 256, 64], "dtype": "float32"}, {"name": "conv3_for_downsample1.cv3.0.bn/gamma", "shape": [64], "dtype": "float32"}, {"name": "conv3_for_downsample1.cv3.0.bn/beta", "shape": [64], "dtype": "float32"}, {"name": "conv3_for_downsample1.cv3.0.bn/moving_mean", "shape": [64], "dtype": "float32"}, {"name": "conv3_for_downsample1.cv3.0.bn/moving_variance", "shape": [64], "dtype": "float32"}, {"name": "conv3_for_downsample1.cv3.0.conv/kernel", "shape": [3, 3, 64, 64], "dtype": "float32"}, {"name": "conv3_for_downsample1.cv3.1.bn/gamma", "shape": [64], "dtype": "float32"}, {"name": "conv3_for_downsample1.cv3.1.bn/beta", "shape": [64], "dtype": "float32"}, {"name": "conv3_for_downsample1.cv3.1.bn/moving_mean", "shape": [64], "dtype": "float32"}, {"name": "conv3_for_downsample1.cv3.1.bn/moving_variance", "shape": [64], "dtype": "float32"}, {"name": "conv3_for_downsample1.cv3.1.conv/kernel", "shape": [3, 3, 64, 64], "dtype": "float32"}, {"name": "conv3_for_downsample1.cv4.bn/gamma", "shape": [128], "dtype": "float32"}, {"name": "conv3_for_downsample1.cv4.bn/beta", "shape": [128], "dtype": "float32"}, {"name": "conv3_for_downsample1.cv4.bn/moving_mean", "shape": [128], "dtype": "float32"}, {"name": "conv3_for_downsample1.cv4.bn/moving_variance", "shape": [128], "dtype": "float32"}, {"name": "conv3_for_downsample1.cv4.conv/kernel", "shape": [1, 1, 256, 128], "dtype": "float32"}, {"name": "conv3_for_downsample2.cv1.bn/gamma", "shape": [128], "dtype": "float32"}, {"name": "conv3_for_downsample2.cv1.bn/beta", "shape": [128], "dtype": "float32"}, {"name": "conv3_for_downsample2.cv1.bn/moving_mean", "shape": [128], "dtype": "float32"}, {"name": "conv3_for_downsample2.cv1.bn/moving_variance", "shape": [128], "dtype": "float32"}, {"name": "conv3_for_downsample2.cv1.conv/kernel", "shape": [1, 1, 512, 128], "dtype": "float32"}, {"name": "conv3_for_downsample2.cv2.bn/gamma", "shape": [128], "dtype": "float32"}, {"name": "conv3_for_downsample2.cv2.bn/beta", "shape": [128], "dtype": "float32"}, {"name": "conv3_for_downsample2.cv2.bn/moving_mean", "shape": [128], "dtype": "float32"}, {"name": "conv3_for_downsample2.cv2.bn/moving_variance", "shape": [128], "dtype": "float32"}, {"name": "conv3_for_downsample2.cv2.conv/kernel", "shape": [1, 1, 512, 128], "dtype": "float32"}, {"name": "conv3_for_downsample2.cv3.0.bn/gamma", "shape": [128], "dtype": "float32"}, {"name": "conv3_for_downsample2.cv3.0.bn/beta", "shape": [128], "dtype": "float32"}, {"name": "conv3_for_downsample2.cv3.0.bn/moving_mean", "shape": [128], "dtype": "float32"}, {"name": "conv3_for_downsample2.cv3.0.bn/moving_variance", "shape": [128], "dtype": "float32"}, {"name": "conv3_for_downsample2.cv3.0.conv/kernel", "shape": [3, 3, 128, 128], "dtype": "float32"}, {"name": "conv3_for_downsample2.cv3.1.bn/gamma", "shape": [128], "dtype": "float32"}, {"name": "conv3_for_downsample2.cv3.1.bn/beta", "shape": [128], "dtype": "float32"}, {"name": "conv3_for_downsample2.cv3.1.bn/moving_mean", "shape": [128], "dtype": "float32"}, {"name": "conv3_for_downsample2.cv3.1.bn/moving_variance", "shape": [128], "dtype": "float32"}, {"name": "conv3_for_downsample2.cv3.1.conv/kernel", "shape": [3, 3, 128, 128], "dtype": "float32"}, {"name": "conv3_for_downsample2.cv4.bn/gamma", "shape": [256], "dtype": "float32"}, {"name": "conv3_for_downsample2.cv4.bn/beta", "shape": [256], "dtype": "float32"}, {"name": "conv3_for_downsample2.cv4.bn/moving_mean", "shape": [256], "dtype": "float32"}, {"name": "conv3_for_downsample2.cv4.bn/moving_variance", "shape": [256], "dtype": "float32"}, {"name": "conv3_for_downsample2.cv4.conv/kernel", "shape": [1, 1, 512, 256], "dtype": "float32"}, {"name": "conv3_for_upsample1.cv1.bn/gamma", "shape": [64], "dtype": "float32"}, {"name": "conv3_for_upsample1.cv1.bn/beta", "shape": [64], "dtype": "float32"}, {"name": "conv3_for_upsample1.cv1.bn/moving_mean", "shape": [64], "dtype": "float32"}, {"name": "conv3_for_upsample1.cv1.bn/moving_variance", "shape": [64], "dtype": "float32"}, {"name": "conv3_for_upsample1.cv1.conv/kernel", "shape": [1, 1, 256, 64], "dtype": "float32"}, {"name": "conv3_for_upsample1.cv2.bn/gamma", "shape": [64], "dtype": "float32"}, {"name": "conv3_for_upsample1.cv2.bn/beta", "shape": [64], "dtype": "float32"}, {"name": "conv3_for_upsample1.cv2.bn/moving_mean", "shape": [64], "dtype": "float32"}, {"name": "conv3_for_upsample1.cv2.bn/moving_variance", "shape": [64], "dtype": "float32"}, {"name": "conv3_for_upsample1.cv2.conv/kernel", "shape": [1, 1, 256, 64], "dtype": "float32"}, {"name": "conv3_for_upsample1.cv3.0.bn/gamma", "shape": [64], "dtype": "float32"}, {"name": "conv3_for_upsample1.cv3.0.bn/beta", "shape": [64], "dtype": "float32"}, {"name": "conv3_for_upsample1.cv3.0.bn/moving_mean", "shape": [64], "dtype": "float32"}, {"name": "conv3_for_upsample1.cv3.0.bn/moving_variance", "shape": [64], "dtype": "float32"}, {"name": "conv3_for_upsample1.cv3.0.conv/kernel", "shape": [3, 3, 64, 64], "dtype": "float32"}, {"name": "conv3_for_upsample1.cv3.1.bn/gamma", "shape": [64], "dtype": "float32"}, {"name": "conv3_for_upsample1.cv3.1.bn/beta", "shape": [64], "dtype": "float32"}, {"name": "conv3_for_upsample1.cv3.1.bn/moving_mean", "shape": [64], "dtype": "float32"}, {"name": "conv3_for_upsample1.cv3.1.bn/moving_variance", "shape": [64], "dtype": "float32"}, {"name": "conv3_for_upsample1.cv3.1.conv/kernel", "shape": [3, 3, 64, 64], "dtype": "float32"}, {"name": "conv3_for_upsample1.cv4.bn/gamma", "shape": [128], "dtype": "float32"}, {"name": "conv3_for_upsample1.cv4.bn/beta", "shape": [128], "dtype": "float32"}, {"name": "conv3_for_upsample1.cv4.bn/moving_mean", "shape": [128], "dtype": "float32"}, {"name": "conv3_for_upsample1.cv4.bn/moving_variance", "shape": [128], "dtype": "float32"}, {"name": "conv3_for_upsample1.cv4.conv/kernel", "shape": [1, 1, 256, 128], "dtype": "float32"}, {"name": "conv3_for_upsample2.cv1.bn/gamma", "shape": [32], "dtype": "float32"}, {"name": "conv3_for_upsample2.cv1.bn/beta", "shape": [32], "dtype": "float32"}, {"name": "conv3_for_upsample2.cv1.bn/moving_mean", "shape": [32], "dtype": "float32"}, {"name": "conv3_for_upsample2.cv1.bn/moving_variance", "shape": [32], "dtype": "float32"}, {"name": "conv3_for_upsample2.cv1.conv/kernel", "shape": [1, 1, 128, 32], "dtype": "float32"}, {"name": "conv3_for_upsample2.cv2.bn/gamma", "shape": [32], "dtype": "float32"}, {"name": "conv3_for_upsample2.cv2.bn/beta", "shape": [32], "dtype": "float32"}, {"name": "conv3_for_upsample2.cv2.bn/moving_mean", "shape": [32], "dtype": "float32"}, {"name": "conv3_for_upsample2.cv2.bn/moving_variance", "shape": [32], "dtype": "float32"}, {"name": "conv3_for_upsample2.cv2.conv/kernel", "shape": [1, 1, 128, 32], "dtype": "float32"}, {"name": "conv3_for_upsample2.cv3.0.bn/gamma", "shape": [32], "dtype": "float32"}, {"name": "conv3_for_upsample2.cv3.0.bn/beta", "shape": [32], "dtype": "float32"}, {"name": "conv3_for_upsample2.cv3.0.bn/moving_mean", "shape": [32], "dtype": "float32"}, {"name": "conv3_for_upsample2.cv3.0.bn/moving_variance", "shape": [32], "dtype": "float32"}, {"name": "conv3_for_upsample2.cv3.0.conv/kernel", "shape": [3, 3, 32, 32], "dtype": "float32"}, {"name": "conv3_for_upsample2.cv3.1.bn/gamma", "shape": [32], "dtype": "float32"}, {"name": "conv3_for_upsample2.cv3.1.bn/beta", "shape": [32], "dtype": "float32"}, {"name": "conv3_for_upsample2.cv3.1.bn/moving_mean", "shape": [32], "dtype": "float32"}, {"name": "conv3_for_upsample2.cv3.1.bn/moving_variance", "shape": [32], "dtype": "float32"}, {"name": "conv3_for_upsample2.cv3.1.conv/kernel", "shape": [3, 3, 32, 32], "dtype": "float32"}, {"name": "conv3_for_upsample2.cv4.bn/gamma", "shape": [64], "dtype": "float32"}, {"name": "conv3_for_upsample2.cv4.bn/beta", "shape": [64], "dtype": "float32"}, {"name": "conv3_for_upsample2.cv4.bn/moving_mean", "shape": [64], "dtype": "float32"}, {"name": "conv3_for_upsample2.cv4.bn/moving_variance", "shape": [64], "dtype": "float32"}, {"name": "conv3_for_upsample2.cv4.conv/kernel", "shape": [1, 1, 128, 64], "dtype": "float32"}, {"name": "conv_for_P4.bn/gamma", "shape": [64], "dtype": "float32"}, {"name": "conv_for_P4.bn/beta", "shape": [64], "dtype": "float32"}, {"name": "conv_for_P4.bn/moving_mean", "shape": [64], "dtype": "float32"}, {"name": "conv_for_P4.bn/moving_variance", "shape": [64], "dtype": "float32"}, {"name": "conv_for_P4.conv/kernel", "shape": [1, 1, 128, 64], "dtype": "float32"}, {"name": "conv_for_P5.bn/gamma", "shape": [128], "dtype": "float32"}, {"name": "conv_for_P5.bn/beta", "shape": [128], "dtype": "float32"}, {"name": "conv_for_P5.bn/moving_mean", "shape": [128], "dtype": "float32"}, {"name": "conv_for_P5.bn/moving_variance", "shape": [128], "dtype": "float32"}, {"name": "conv_for_P5.conv/kernel", "shape": [1, 1, 256, 128], "dtype": "float32"}, {"name": "conv_for_feat1.bn/gamma", "shape": [64], "dtype": "float32"}, {"name": "conv_for_feat1.bn/beta", "shape": [64], "dtype": "float32"}, {"name": "conv_for_feat1.bn/moving_mean", "shape": [64], "dtype": "float32"}, {"name": "conv_for_feat1.bn/moving_variance", "shape": [64], "dtype": "float32"}, {"name": "conv_for_feat1.conv/kernel", "shape": [1, 1, 128, 64], "dtype": "float32"}, {"name": "conv_for_feat2.bn/gamma", "shape": [128], "dtype": "float32"}, {"name": "conv_for_feat2.bn/beta", "shape": [128], "dtype": "float32"}, {"name": "conv_for_feat2.bn/moving_mean", "shape": [128], "dtype": "float32"}, {"name": "conv_for_feat2.bn/moving_variance", "shape": [128], "dtype": "float32"}, {"name": "conv_for_feat2.conv/kernel", "shape": [1, 1, 256, 128], "dtype": "float32"}, {"name": "down_sample1.bn/gamma", "shape": [128], "dtype": "float32"}, {"name": "down_sample1.bn/beta", "shape": [128], "dtype": "float32"}, {"name": "down_sample1.bn/moving_mean", "shape": [128], "dtype": "float32"}, {"name": "down_sample1.bn/moving_variance", "shape": [128], "dtype": "float32"}, {"name": "down_sample1.conv/kernel", "shape": [3, 3, 64, 128], "dtype": "float32"}, {"name": "down_sample2.bn/gamma", "shape": [256], "dtype": "float32"}, {"name": "down_sample2.bn/beta", "shape": [256], "dtype": "float32"}, {"name": "down_sample2.bn/moving_mean", "shape": [256], "dtype": "float32"}, {"name": "down_sample2.bn/moving_variance", "shape": [256], "dtype": "float32"}, {"name": "down_sample2.conv/kernel", "shape": [3, 3, 128, 256], "dtype": "float32"}, {"name": "rep_conv_1.bn/gamma", "shape": [128], "dtype": "float32"}, {"name": "rep_conv_1.bn/beta", "shape": [128], "dtype": "float32"}, {"name": "rep_conv_1.bn/moving_mean", "shape": [128], "dtype": "float32"}, {"name": "rep_conv_1.bn/moving_variance", "shape": [128], "dtype": "float32"}, {"name": "rep_conv_1.conv/kernel", "shape": [3, 3, 64, 128], "dtype": "float32"}, {"name": "rep_conv_2.bn/gamma", "shape": [256], "dtype": "float32"}, {"name": "rep_conv_2.bn/beta", "shape": [256], "dtype": "float32"}, {"name": "rep_conv_2.bn/moving_mean", "shape": [256], "dtype": "float32"}, {"name": "rep_conv_2.bn/moving_variance", "shape": [256], "dtype": "float32"}, {"name": "rep_conv_2.conv/kernel", "shape": [3, 3, 128, 256], "dtype": "float32"}, {"name": "rep_conv_3.bn/gamma", "shape": [512], "dtype": "float32"}, {"name": "rep_conv_3.bn/beta", "shape": [512], "dtype": "float32"}, {"name": "rep_conv_3.bn/moving_mean", "shape": [512], "dtype": "float32"}, {"name": "rep_conv_3.bn/moving_variance", "shape": [512], "dtype": "float32"}, {"name": "rep_conv_3.conv/kernel", "shape": [3, 3, 256, 512], "dtype": "float32"}, {"name": "sppcspc.cv1.bn/gamma", "shape": [256], "dtype": "float32"}, {"name": "sppcspc.cv1.bn/beta", "shape": [256], "dtype": "float32"}, {"name": "sppcspc.cv1.bn/moving_mean", "shape": [256], "dtype": "float32"}, {"name": "sppcspc.cv1.bn/moving_variance", "shape": [256], "dtype": "float32"}, {"name": "sppcspc.cv1.conv/kernel", "shape": [1, 1, 512, 256], "dtype": "float32"}, {"name": "sppcspc.cv2.bn/gamma", "shape": [256], "dtype": "float32"}, {"name": "sppcspc.cv2.bn/beta", "shape": [256], "dtype": "float32"}, {"name": "sppcspc.cv2.bn/moving_mean", "shape": [256], "dtype": "float32"}, {"name": "sppcspc.cv2.bn/moving_variance", "shape": [256], "dtype": "float32"}, {"name": "sppcspc.cv2.conv/kernel", "shape": [1, 1, 512, 256], "dtype": "float32"}, {"name": "sppcspc.cv3.bn/gamma", "shape": [256], "dtype": "float32"}, {"name": "sppcspc.cv3.bn/beta", "shape": [256], "dtype": "float32"}, {"name": "sppcspc.cv3.bn/moving_mean", "shape": [256], "dtype": "float32"}, {"name": "sppcspc.cv3.bn/moving_variance", "shape": [256], "dtype": "float32"}, {"name": "sppcspc.cv3.conv/kernel", "shape": [1, 1, 1024, 256], "dtype": "float32"}, {"name": "sppcspc.cv4.bn/gamma", "shape": [256], "dtype": "float32"}, {"name": "sppcspc.cv4.bn/beta", "shape": [256], "dtype": "float32"}, {"name": "sppcspc.cv4.bn/moving_mean", "shape": [256], "dtype": "float32"}, {"name": "sppcspc.cv4.bn/moving_variance", "shape": [256], "dtype": "float32"}, {"name": "sppcspc.cv4.conv/kernel", "shape": [1, 1, 512, 256], "dtype": "float32"}, {"name": "yolo_head_P3/kernel", "shape": [1, 1, 128, 51], "dtype": "float32"}, {"name": "yolo_head_P3/bias", "shape": [51], "dtype": "float32"}, {"name": "yolo_head_P4/kernel", "shape": [1, 1, 256, 51], "dtype": "float32"}, {"name": "yolo_head_P4/bias", "shape": [51], "dtype": "float32"}, {"name": "yolo_head_P5/kernel", "shape": [1, 1, 512, 51], "dtype": "float32"}, {"name": "yolo_head_P5/bias", "shape": [51], "dtype": "float32"}]}]}